training/src/main/python/output/model.onnx (onnx, 80169 bytes, 4 tensors)

target/kernel:0 f4 [50, 1]
00000000: fa7d 77be 4060 e9bd d2b5 ab3e a780 dcbd
00000010: e0c9 a8be 14c3 963e 09a2 82be c116 d23a
00000020: 49c7 8bbe 8ac6 aa3d 2c0e 233e b50b a8bd
00000030: 2def 1a3d 4a67 c5bd e36b 7d3e 8d4b a43e
00000040: 1f49 443e 617f d73d 165f 96be 1758 08be
00000050: f5cc 72be 3344 89be bc07 aabe 552d 633e
00000060: dddd 75be 2f4f 62be 7bad 55be 6798 273e
00000070: 75cf 88be eeea 07bd 9bb8 63be d2f7 a3be
00000080: fc55 65bd 03f5 703d b6a6 a13d 69be 11be
00000090: 791a f3bd b443 243e 3fe7 5abc d507 fabc
000000a0: 89fb 893e e666 47be a4ed 2fbe cbf4 5bbe
000000b0: 7860 e83d 7afd b7bd 94f8 1a3e 7f98 9cbe
000000c0: d1bc 983e 6361 9abe
-0.2416915 -0.11395311 0.33537155 -0.10766726 -0.32966518 0.29445708 -0.25514248 0.001602851
-0.2730048 0.083386496 0.15923375 -0.08205358 0.037825752 -0.096388415 0.24748187 0.3208889
0.19168518 0.105223425 -0.2936942 -0.13314854 -0.23710997 -0.26809844 -0.33209026 0.22185262
-0.24010415 -0.22100519 -0.20866959 0.1636673 -0.26720777 -0.03318303 -0.2223839 -0.3202501
-0.055990204 0.05882741 0.07893126 -0.14232792 -0.11870284 0.16041452 -0.013360797 -0.030521313
0.2694972 -0.19472846 -0.17180496 -0.214801 0.11346525 -0.08983894 0.15133888 -0.30585095
0.29831555 -0.30152425

lstm_1_W f4 [1, 200, 47]
00000000: 78aa 67bd 50a0 e93d 9a42 bcbd 7026 e43d
00000010: 80ce be3d b1e0 22be 1822 f13c a0c6 e53d
00000020: b20e 28bd d00f 6ebc 23ad 1ebe 005b 1a3e
00000030: 7c2d 8d3e 76c4 f8bd 12e6 0c3e b9cd b3bd
00000040: b092 613c 32c1 9d3d f122 c83d 267b 44bd
00000050: d073 403d e245 92bd b0ba 1d3d f912 86bd
00000060: ebae 1ebe 00f1 66ba aeb5 13be 1cc3 b63d
00000070: 5020 093e a655 53bd ca6b 083e a80e 153e
00000080: 64dd f43d eca3 443d 2666 e13c 0e1c 843d
00000090: 1863 f1bc e7b5 a0bd d4c0 f1bd 1a17 a13d
000000a0: 9831 3d3d 8a7d febd f0b0 153c 8a7e b93d
000000b0: 2617 f8bd cc33 64bd 0255 923d 6af0 893d
000000c0: e460 083d 645a cd3d b47c fe3d f9ec b73d
000000d0: 85fc 13be ac52 953d 80cf ce3b 00f1 b9bc
000000e0: 4c37 ff3d a4b2 713d 6dde 17be 0a96 593d
000000f0: 7099 fe3d 9864 e7bc c4e3 7cbd 1e2c b83d
00000100: 70d4 54bc e54e 6d3d 28ba 9cbd 8036 503b
00000110: 7c98 7dbd 80ac dcbc 8b9f b9bd 2a5f c9bd
00000120: 4c6b 213d f82d 143e e0c4 3bbc 9522 d9bd
00000130: ef44 88bd 1240 12be a678 ecbd dc78 a13d
00000140: 708d e43d f8bb cf3d 475a 87bc 00ce 063d
00000150: e06d 723d fcd3 d83d b4ea 503d 6a0a 093e
00000160: 4a97 bcbd e401 103e 3a0f 90bd e711 d1bd
00000170: 5b1b a8bd 9c86 49bd 9c39 19be 4767 1bbe
00000180: aac7 9dbd a942 c5bd b608 0d3e 9fd8 1ebe
00000190: 67da 83bd 003f 6a3c 2008 50bc 70d5 953d
000001a0: d087 d8bc c85b e83c 4d5d 903e 78fd 203d
000001b0: f047 b03c a0d4 f23c 7808 273d 86bf 0b3e
000001c0: 9403 f63c fe63 f43d 000a 013e 0867 b2bc
000001d0: c013 5e3b 6643 1c3e 5fdd 8fbd b418 e2bd
000001e0: 944b cabd 8cdf e13d 10aa 6a3d 8843 0cbd
000001f0: ac79 d93d 55db a8bd 3770 b2bd a096 bc3d
00000200: 1b9c c33b 9579 183d 50e1 9b3c 8c27 d83d
00000210: a831 7f3d 2a81 1abe 20fe d53d 04f5 e43d
00000220: 2be3 e1bd 6443 3fbd 4875 dd3d 2e55 04bd
00000230: 9326 0fbd 8873 a9bc 3710 0fbe eccf 083e
00000240: 4ce6 da3d ed80 f73d d6a2 a2bd ccb1 a43d
00000250: bf82 b1bd c9d4 9bbd b0b0 11bd 8aa1 c5bd
00000260: f842 ad3c cfc3 e4bc 24cf 643d 4ef4 debd
00000270: 8295 5dbd 2107 a9bd 28cf ff3d 1700 153e
00000280: 66ab dabd 2829 41bd f850 f83c d202 11be
00000290: 06ca 06bd 6f44 fabd c24f c8bd 0074 12be
000002a0: 6c23 f83d 0089 2c3a 7db8 afbd 77d2 f4bd
000002b0: 3b99 18be 00b4 3c3d 7066 ab3c 8267 cb3c
000002c0: 56b9 f53c 48ff 903d a832 04be ec88 783d
000002d0: 000f 34bb 95d7 c5bd 90fc 5ebd 807b ea3d
000002e0: c01d 203b 90bc 5abd f08b b5bc 3316 1dbe
000002f0: 3c91 473d 180c febd c880 863c f245 84bd
00000300: 1540 e53c 2c1f f1bc 4e0c a6bd 1299 1bbe
00000310: d820 20bd 60d9 2abd 96e0 0a3e 4497 3a3d
00000320: 1142 ec3d 58f3 9d3d 0036 4cba 622b 093e
00000330: 42d1 b23d d894 f9bc 6952 163d c14b 13bc
00000340: 96ef ecbd eef7 15be a8fe b13d 4c9d 153e
00000350: defe 92bd aeba 9f3d e8d5 3b3d 17dd 08be
00000360: de1a 73bd 8094 c6bd c0a1 6bbb a295 a63d
00000370: 7cbf 1b3d 9e4a 013e fd64 afbd 1a73 c3bd
00000380: a01a 49bd 4825 103d c8cf 3ebd 5cf1 cc3d
00000390: c401 f13d 1037 7bbc 2f2f 0cbe 2698 a63d
000003a0: 08b9 df3d b463 e43d 1484 9c3d 60f9 0bbe
000003b0: a6a4 bd3d 00f8 1a3d bc60 173e 6e11 0e3e
000003c0: 4268 a7bd 78ab 7a3d 1855 453d 84f3 f23d
000003d0: 20b9 c9bb 70b9 b9bc 95ec 03be 7817 40bd
000003e0: 8020 09bc 13cb 00be 58cb 723d f029 d53c
000003f0: 64de 513d b0cb c9bd daef 103e ba04 073e
-0.056559056 0.1140753 -0.09192391 0.11140144 0.093167305 -0.15906025 0.029435202 0.11219525
-0.04102964 -0.014530137 -0.15495734 0.15073776 0.27573764 -0.12146847 0.1375964 -0.08779473
0.013767883 0.07702865 0.097722895 -0.047969006 0.046985447 -0.07142235 0.038508117 -0.065465875
-0.15496413 -0.00088097155 -0.14424774 0.08923933 0.13391232 -0.051595353 0.13322368 0.14556372
0.119562894 0.04800789 0.027514528 0.064506635 -0.029466197 -0.07847195 -0.11804357 0.078657344
0.046189874 -0.124262884 0.0091364235 0.090573385 -0.1211379 -0.05571346 0.0714512 0.067353085
0.033295527 0.10027006 0.12426129 0.08980746 -0.14451797 0.07291159 0.006311357 -0.022697926
0.12461719 0.059008256 -0.14830942 0.053121604 0.1243161 -0.028246209 -0.06174065 0.0899279
-0.012990102 0.057936568 -0.07652694 0.0031770766 -0.061913 -0.026937723 -0.090636335 -0.09832604
0.039408967 0.1447066 -0.011460513 -0.10602299 -0.06653773 -0.14282253 -0.11546449 0.0788438
0.111597896 0.10143274 -0.01652254 0.0329113 0.059186816 0.10587308 0.05100508 0.13382879
-0.092085436 0.14063221 -0.07034154 -0.10208493 -0.08208343 -0.04920064 -0.14963382 -0.15176116
-0.077040985 -0.09631855 0.13772854 -0.15512322 -0.06438141 0.014297247 -0.01269725 0.073161006
-0.026431948 0.028364077 0.28196183 0.039304227 0.021518677 0.029642403 0.04077956 0.13647279
0.030031003 0.119331345 0.12601471 -0.021777645 0.0033886284 0.15260085 -0.07024645 -0.11039868
-0.09877697 0.11028966 0.05729109 -0.03424409 0.1061891 -0.08244959 -0.087128095 0.09208417
0.005969537 0.037225325 0.019028336 0.10554418 0.062303215 -0.15088335 0.10448861 0.111795455
-0.11029657 -0.046695128 0.10813385 -0.032307796 -0.034948897 -0.020684972 -0.13971029 0.13360566
0.10688457 0.120851375 -0.07941215 0.080417246 -0.08667516 -0.07608945 -0.035568893 -0.09649952
0.021150097 -0.0279254 0.055861607 -0.10886441 -0.05409766 -0.08253313 0.12490684 0.14550816
-0.10677223 -0.04715839 0.030312046 -0.14161232 -0.03290751 -0.12220084 -0.097808376 -0.14302063
0.12116131 0.0006581694 -0.0858011 -0.119542055 -0.14902203 0.0460701 0.02092287 0.02482963
0.029995602 0.07079941 -0.12909949 0.060677454 -0.002747476 -0.0966026 -0.05444008 0.11449337
0.0024431795 -0.053402483 -0.022161454 -0.153405 0.04872249 -0.124046504 0.01641883 -0.064586535
0.027984658 -0.02943381 -0.08107816 -0.1519511 -0.039093822 -0.04171121 0.13562235 0.045554414
0.11536039 0.0771243 -0.0007790029 0.13395455 0.08731319 -0.030466482 0.036699686 -0.008990229
-0.11569135 -0.14645359 0.0869115 0.14610785 -0.07177518 0.07799278 0.045858294 -0.13365589
-0.059351794 -0.09696293 -0.0035954565 0.08134009 0.03802441 0.1262612 -0.08564184 -0.09543438
-0.049097657 0.035191804 -0.046584874 0.10006973 0.11767915 -0.015332952 -0.13689874 0.08134489
0.10923964 0.11151829 0.076423794 -0.13669348 0.0925992 0.037834167 0.14782995 0.13873836
-0.081741825 0.06119868 0.048176855 0.11862853 -0.006156102 -0.022671431 -0.12883218 -0.04689738
-0.008369565 -0.12577467 0.059275955 0.026020974 0.05123748 -0.098533034 0.14153996 0.13185397

lstm_1_R f4 [1, 200, 50]
00000000: 29d5 373d eef4 70bd 5916 213d 9184 26be
00000010: d328 ab3d 0ad5 563d 10f9 673d ffec 403c
00000020: 14df d1bd 2dce bbbd a73c 973c 0a5d 90bd
00000030: aa26 3f3c be5e a33d 61dc faba f2ac 0f3d
00000040: 2d6b 75bc 6e95 243c 1503 48bd ccf7 d43d
00000050: 13bd f1bd f080 fdbc e848 2c3c 1d9d 2c3b
00000060: c7eb bd3d 9fde 833b 5204 243c d646 913d
00000070: 7fb3 0c3c 414f 06bd 4ca1 a5bb 1108 8d3a
00000080: f4a7 d5bd fb1b 44bc 8453 293d 85b3 083e
00000090: ec41 943d b7bf 0c3e a311 9ebd dafa 2e3b
000000a0: 57e5 9fbd dd1a bcba faba 283d 7523 87bd
000000b0: 96e7 253e dc38 2b3e f93a 8c3a c9d3 873d
000000c0: 0fe3 a8bd 2b3e 7dbc aaae 1ebc 9a5d 833e
000000d0: e3f2 e6bd 0519 36bd bd06 4fbd 0e33 8b3d
000000e0: 89df 21bd a7ac c03d c2df 2dbd 0f32 823d
000000f0: a8a1 5c3b 6baf 08bc 2475 043d b028 063d
00000100: a2a4 edbd 868a 0fbd 91e7 673b bf41 a33d
00000110: fa50 8d3d 346f 513d a7f2 8abb 7a11 8f3d
00000120: 8bf5 083e 1ea9 47bc b2d3 32bd 168c b9bd
00000130: d563 2d3d 7933 b2bc 00d3 37bd ced8 043e
00000140: 3c86 7ebb 995e 96bd ca34 95bc 4a3c f3bd
00000150: ecca 8ab7 e9a6 993d 8af4 9a3d b0e1 d0bb
00000160: be2d 353b 3f83 34bc 416a df3d 26ba 85bd
00000170: ead3 2c3d 3cc2 1f3d b842 6c3d 5cff dcbb
00000180: 0639 afbc 6c88 8fbc b3a1 88bc d6d7 e03b
00000190: 4810 e9bd 326a 3e3d 237b 16bc add6 cb3c
000001a0: 7bb0 82bd 5374 02be fa69 613c 3cba a0bb
000001b0: 446f f63d 3db8 553d 28ad 743d a487 443e
000001c0: b7cc 26be 5e02 d23d f187 fd3a cc00 47bd
000001d0: 0372 f93c 5fc1 9d3d 3445 a13d 2287 b63d
000001e0: f0cd 9d3b 2167 d13c 98ad eb3d daeb 88bc
000001f0: 2337 df3c 39d9 26bd cc71 25bd a3ed c0bd
00000200: 4afe bd3d cda8 a83d 4e44 e53d 1278 773c
00000210: b153 96bd 0ff3 debd 84a1 93bd 30a8 73bd
00000220: 205f 033e 70f5 0bbd 66c1 1fbd 2427 15bd
00000230: fd65 1dbd 0467 fd3d 8139 b9bd a519 a2bc
00000240: f6f5 9c3d 9e62 523d 514d df3d aeac c1bc
00000250: 7d00 52bc 1e91 ec3c 7c78 f63d d030 a1bd
00000260: bd65 edbc 3c3e aa3d cb09 fbbd 2b9e 88bd
00000270: 8de7 9f39 25b1 d23b 4b6b f73c 7518 ac3d
00000280: 8ca2 6bbc fe06 6bbd 2bf7 4ebe 5bf6 063e
00000290: 57e7 0fbe 7e0a 94bc 5807 373d 2601 9fbd
000002a0: 74f1 d0bd 0b52 6d3d bbe9 d4bd b43b 0bbd
000002b0: 0253 d9bd f40d 1c3d 3bf1 fdbc 8729 613d
000002c0: 7da2 f53d 6e62 08bd 0ba7 5ebc 870f 88bb
000002d0: cfb1 36bc 76ed 483a f67e 5a3d a2f1 31bc
000002e0: 48ed a0bd 97bc 9b3d be19 13bc 0e0f a9bc
000002f0: 00e2 7a3c 6b21 233c 52bb 8abc 41d6 8dbd
00000300: e4de 1bbe 454f 29bd 8e91 123e d7c9 863c
00000310: 677b fabd 741c adbd 6b7a b93c 037a 523d
00000320: 97ae a23d 8c8f 193e 1db9 1dbd 5cb9 2fbd
00000330: 8736 f6bd 0979 14be 07d1 6d3c 4c44 d4bc
00000340: 97b6 833d 1865 d9bd b5a2 b23d 273e 383d
00000350: e9e7 52bb 8004 8bbc b41c c63d 1cdc 27bd
00000360: 0c90 ddbc 1473 063b a6b8 c5bd f81d c43d
00000370: c22f 7d3c 9eba 253d 669d 1cbc d2b5 30bd
00000380: f871 94bb 9c98 803c 5728 893c d16d ffbc
00000390: 86f4 97bc dced 1f3d 05cb d4bd f4ce bbbd
000003a0: a192 293c 72a5 f3bd 65be 143d a951 cfbd
000003b0: ba92 033d e700 213e c557 873d 845c 83bd
000003c0: 82c3 45bd 7f2c b63c a73a 23bd 4610 fabd
000003d0: d5f1 9b3d f759 20bd e9b8 7ebd af03 c33d
000003e0: e7bc eb3c 1e47 67bb 8837 023c 6b40 053e
000003f0: 3227 9a3c 2ff1 143d e36f e3bc cc1d f53d
0.04488102 -0.058827333 0.039327953 -0.16261508 0.08357396 0.052449264 0.05663401 0.011775254
-0.10247627 -0.09170184 0.018461538 -0.07048996 0.011666933 0.07977055 -0.0019139164 0.035077043
-0.014979166 0.010045392 -0.048831064 0.10398826 -0.11803641 -0.030945271 0.010515429 0.0026338764
0.092734866 0.0040243412 0.010010796 0.07093589 0.008587717 -0.032790426 -0.0050546285 0.001075985
-0.10432425 -0.011969562 0.041339412 0.13349731 0.07239136 0.13745008 -0.07718208 0.0026699812
-0.07807415 -0.0014351268 0.04119394 -0.0659856 0.16201624 0.16720909 0.0010698728 0.06632192
-0.08246433 -0.0154567165 -0.009685198 0.2565735 -0.11276796 -0.044457454 -0.050543536 0.06796847
-0.03951982 0.09407931 -0.04244972 0.06357204 0.003366569 -0.008342604 0.032338277 0.032753646
-0.11603667 -0.035044216 0.0035385827 0.079715244 0.06900211 0.051131442 -0.004240352 0.06985755
0.13374917 -0.012186317 -0.04365892 -0.090599224 0.042331535 -0.02175306 -0.04487896 0.1297333
-0.0038837334 -0.07342262 -0.018213648 -0.118767336 -1.6545375e-05 0.07502539 0.075661734 -0.0063745603
0.0027645673 -0.01101762 0.10908938 -0.065296456 0.042194284 0.039003596 0.057680815 -0.0067443084
-0.021389496 -0.017521106 -0.016678667 0.006861667 -0.113800585 0.046487994 -0.0091846315 0.024882639
-0.06381317 -0.12739687 0.013758177 -0.0049050134 0.12032941 0.052177656 0.059735447 0.19192368
-0.1628903 0.10254358 0.0019342882 -0.048584744 0.030449873 0.07702898 0.078745276 0.08912493
0.0048158094 0.025561871 0.1150772 -0.016714025 0.02724797 -0.040734503 -0.04039173 -0.094203256
0.092770174 0.08235321 0.11194669 0.015104311 -0.073401816 -0.108862035 -0.07208541 -0.059486568
0.12829256 -0.034169614 -0.0390028 -0.03641428 -0.03842734 0.12373164 -0.09044171 -0.019787619
0.07664101 0.05136358 0.10903419 -0.02364191 -0.012817499 0.028877791 0.12034699 -0.07870638
-0.028979177 0.083126515 -0.12257727 -0.06670793 0.00030499362 0.0064298087 0.030202528 0.08403102
-0.014382016 -0.057379715 -0.20211475 0.13179915 -0.14053093 -0.01807141 0.044684738 -0.07763891
-0.102023035 0.05793957 -0.10396143 -0.033992484 -0.106115356 0.038099244 -0.030998817 0.054971244
0.11993883 -0.033296995 -0.013589631 -0.0041522416 -0.011150791 0.0007664779 0.053343736 -0.010860832
-0.07857758 0.0760433 -0.008978305 -0.020637061 0.015312672 0.009956698 -0.016935024 -0.06925631
-0.15221745 -0.041335363 0.14313337 0.016453667 -0.122305684 -0.08452693 0.022641381 0.05138589
0.079434566 0.14996165 -0.038506616 -0.04290138 -0.12022119 -0.14499296 0.014515168 -0.025911473
0.064313106 -0.10614985 0.0872244 0.044981148 -0.0032181686 -0.01696992 0.096734434 -0.040981397
-0.027046226 0.002051537 -0.096543595 0.095760286 0.015453281 0.040461175 -0.009559011 -0.043142147
-0.0045301877 0.01569777 0.016742868 -0.031180294 -0.018549215 0.0390452 -0.103902854 -0.091703326
0.0103499 -0.118967906 0.036314387 -0.10122997 0.03212235 0.15723 0.066085376 -0.0641413
-0.048282154 0.022238014 -0.039850857 -0.12210135 0.07614485 -0.039148297 -0.062188063 0.09522187
0.0287766 -0.0035290192 0.00794781 0.13012855 0.018817518 0.036362823 -0.027763313 0.11968574

lstm_1_B f4 [1, 400]
00000000: 6248 eebb eff5 5b3b e712 c93a eab4 56bc
00000010: 7b63 edbb 69e0 e93a f855 a0bc ffc8 d3bc
00000020: 8422 8fbb 3aa0 a63b e05d 92bc 30d2 27bb
00000030: 2fce 2bbc 03c2 6abb a640 95ba 7eb8 d03b
00000040: d48c 253a 1cf0 56bc c7a7 02bc 355a f83b
00000050: 689c 1bbc e062 0339 6ac5 42bb ce27 e1bc
00000060: 45a1 c4bc 97e1 8dbc c6d8 d6bb a785 38bb
00000070: 4281 b43b 4e66 90bc 0c67 b4bc 4a43 85bc
00000080: 301e 01bb 2a3c 8bbc 26e6 e6bc addf b7bb
00000090: 5a7a a7bb 0b3d 193b 15ac 4fbc a911 d63b
000000a0: 5ea8 0dbd 60c7 98bb ca9d 28ba c399 83bb
000000b0: 5b29 94bb 4532 493b ee9f 22bb 18f2 42bc
000000c0: e9d2 65bc be9d 5e3a 3f3f 01bc 3375 423b
000000d0: 4684 083b e5af 54bc 1b92 f8bb 6666 fe3a
000000e0: 3e2f a7bc 5335 dabc 84d2 a5bb ddb5 cd3b
000000f0: b6ff 99bc 70eb 09bb 6af8 34bc 0ece 8abb
00000100: 9d3c 57b8 97bf d73b 7efc 13b8 f8dd 5dbc
00000110: b6b7 08bc cf51 f23b 2070 1dbc 8cab 41ba
00000120: 45c2 3bbb 64cc e2bc a029 c4bc 9569 96bc
00000130: f8a8 e6bb 7b2d 38bb 7f9b ab3b 8c7b 91bc
00000140: f471 b5bc eac4 91bc 5c8d 13bb 57ff 81bc
00000150: da00 eebc bddf cebb 7130 a6bb 3901 243b
00000160: 3349 59bc 568c 003c 66c2 10bd 092a 90bb
00000170: dbce 20ba 0d33 8dbb 43e3 8bbb 7c6a 303b
00000180: 7160 10bb 7e34 4abc 497e 68bc 9895 a839
00000190: 0000 803f 0000 803f 0000 803f 0000 803f
000001a0: 0000 803f 0000 803f 0000 803f 0000 803f
000001b0: 0000 803f 0000 803f 0000 803f 0000 803f
000001c0: 0000 803f 0000 803f 0000 803f 0000 803f
000001d0: 0000 803f 0000 803f 0000 803f 0000 803f
000001e0: 0000 803f 0000 803f 0000 803f 0000 803f
000001f0: 0000 803f 0000 803f 0000 803f 0000 803f
00000200: 0000 803f 0000 803f 0000 803f 0000 803f
00000210: 0000 803f 0000 803f 0000 803f 0000 803f
00000220: 0000 803f 0000 803f 0000 803f 0000 803f
00000230: 0000 803f 0000 803f 0000 803f 0000 803f
00000240: 0000 803f 0000 803f 0000 803f 0000 803f
00000250: 0000 803f 0000 803f a555 20bb da92 8eba
00000260: ae3f c13a 0b70 24bb df5a 46bb 86d4 1c3b
00000270: adfc 28bb 44de bb3c 96cc 23bb 42a9 383b
00000280: a0ef 543b 3e78 0939 cb25 b63b 3f27 89bb
00000290: 98fb 593a aabf 353b 43c7 3a3b 4145 973a
000002a0: 45bf 18bb 756b 45bb 1c7e 2abb bdc8 74bb
000002b0: 4c2f 13bb 3e7a ed3a f1ab 00bb 2fc9 13bb
000002c0: ad3c 3bbb 516e 853b acab 5ebb 3e91 a6bb
000002d0: e651 3bbb 5ffb e9ba 0b04 843a 5aa0 233a
000002e0: 7aa7 cf39 781b 1dbb 7c82 52bb 9e32 8d3b
000002f0: a8fe a43a 5864 01bc 9677 f13a 536d b0ba
00000300: 4d67 feba d5aa 68bb 2cdf 2b3b bc3f 2839
00000310: 7b34 d23a 9e8c 0cbb 2ba3 013b 6a73 ebba
00000320: 0000 0000 0000 0000 0000 0000 0000 0000
00000330: 0000 0000 0000 0000 0000 0000 0000 0000
00000340: 0000 0000 0000 0000 0000 0000 0000 0000
00000350: 0000 0000 0000 0000 0000 0000 0000 0000
00000360: 0000 0000 0000 0000 0000 0000 0000 0000
00000370: 0000 0000 0000 0000 0000 0000 0000 0000
00000380: 0000 0000 0000 0000 0000 0000 0000 0000
00000390: 0000 0000 0000 0000 0000 0000 0000 0000
000003a0: 0000 0000 0000 0000 0000 0000 0000 0000
000003b0: 0000 0000 0000 0000 0000 0000 0000 0000
000003c0: 0000 0000 0000 0000 0000 0000 0000 0000
000003d0: 0000 0000 0000 0000 0000 0000 0000 0000
000003e0: 0000 0000 0000 0000 0000 0000 0000 0000
000003f0: 0000 0000 0000 0000 0000 0000 0000 0000
-0.0072718123 0.0033563336 0.0015340716 -0.013104657 -0.007244525 0.0017843369 -0.019572243 -0.025852678
-0.0043681283 0.0050850185 -0.017867029 -0.002560746 -0.01048617 -0.0035821206 -0.0011387065 0.0063696494
0.00063152355 -0.01311877 -0.007974572 0.007579113 -0.009497739 0.00012529967 -0.0029719719 -0.0274848
-0.02400268 -0.017319484 -0.006556603 -0.0028155835 0.005508573 -0.017626908 -0.022021793 -0.016267437
-0.001970183 -0.016996462 -0.028185915 -0.005611381 -0.005111021 0.0023382332 -0.012675305 0.006532867
-0.034584396 -0.004662439 -0.0006432204 -0.0040161326 -0.0045215315 0.003070013 -0.0024814564 -0.01189854
-0.014027336 0.00084921333 -0.007888614 0.0029671907 0.0020830794 -0.01298139 -0.0075857765 0.0019409179
-0.020408269 -0.026636755 -0.005060496 0.0062777833 -0.01879869 -0.0021044873 -0.011045555 -0.0042359894
-5.1316445e-05 0.0065841186 -3.5282683e-05 -0.013541691 -0.008344581 0.0073950063 -0.009609252 -0.0007387928
-0.002864973 -0.027685352 -0.02394563 -0.018360892 -0.0070391856 -0.002810328 0.0052370424 -0.017759107
-0.022149064 -0.017794091 -0.0022514677 -0.015868826 -0.02905314 -0.006313293 -0.0050716926 0.0025025143
-0.013262081 0.007845959 -0.035341643 -0.004399542 -0.00061343395 -0.0043090642 -0.004269035 0.0026918938
-0.002203014 -0.012341617 -0.014190265 0.00032154913 1.0 1.0 1.0 1.0
1.0 1.0 1.0 1.0 1.0 1.0 1.0 1.0
1.0 1.0 1.0 1.0 1.0 1.0 1.0 1.0
1.0 1.0 1.0 1.0 1.0 1.0 1.0 1.0
1.0 1.0 1.0 1.0 1.0 1.0 1.0 1.0
1.0 1.0 1.0 1.0 1.0 1.0 1.0 1.0
1.0 1.0 1.0 1.0 1.0 1.0 -0.002446511 -0.0010877505
0.001474371 -0.0025091197 -0.0030266566 0.0023930385 -0.0025785372 0.022933133 -0.002499377 0.0028177057
0.003249146 0.00013110132 0.0055587045 -0.0041855867 0.00083153835 0.002773265 0.0028500117 0.0011541025
-0.0023307365 -0.0030123864 -0.0026015108 -0.0037351095 -0.002245861 0.0018118096 -0.0019633735 -0.0022550335
-0.00285701 0.0040719886 -0.0033976836 -0.005083232 -0.002858275 -0.0017851404 0.0010072006 0.0006241851
0.00039606896 -0.0023972671 -0.0032121232 0.0043090126 0.00125881 -0.007897459 0.001842248 -0.0013460316
-0.0019409448 -0.0035502214 0.002622555 0.00016045471 0.0016037369 -0.002144612 0.0019781094 -0.0017963473
0.0 0.0 0.0 0.0 0.0 0.0 0.0 0.0
0.0 0.0 0.0 0.0 0.0 0.0 0.0 0.0
0.0 0.0 0.0 0.0 0.0 0.0 0.0 0.0
0.0 0.0 0.0 0.0 0.0 0.0 0.0 0.0
0.0 0.0 0.0 0.0 0.0 0.0 0.0 0.0
0.0 0.0 0.0 0.0 0.0 0.0 0.0 0.0
0.0 0.0 0.0 0.0 0.0 0.0 0.0 0.0
