training/src/main/python/example.onnx (onnx, 80178 bytes, 4 tensors)

dense_1/kernel:0 f4 [50, 1]
0	0xbea76a65	-0.3269836
1	0xbe9bec6c	-0.30453813
2	0xbe8dc955	-0.27692667
3	0xbe1556d5	-0.14583905
4	0x3dfde842	0.12397815
5	0xbdd46236	-0.10370295
6	0x3e6070eb	0.21918075
7	0x3eab6f26	0.33483237
8	0xbdab68ab	-0.08369573
9	0x3d40ae2f	0.047041114
10	0xbe1f3bb6	-0.15550122
11	0xbdad5b28	-0.08464652
12	0x3e628184	0.22119719
13	0xbdd39a4c	-0.10332164
14	0x3e821a93	0.254109
15	0x3ea792f1	0.32729295
16	0x3e2e39a0	0.1701417
17	0x3d0a70ff	0.033799168
18	0xbe6c0108	-0.23047268
19	0x3eab6da4	0.33482087
20	0x3d88b967	0.06675988
21	0xb92bfd1f	-0.00016402126
22	0xbda7ed05	-0.08199505
23	0x3d0b346e	0.033985548
24	0xbc0b427a	-0.008499736
25	0xbe098737	-0.13430487
26	0x3db44eb5	0.08804075
27	0x3e4918e8	0.19638407
28	0xbe83c45c	-0.25735748
29	0xbe8ffee3	-0.2812415
30	0x3d3aae56	0.045576416
31	0xbdbaf65b	-0.0912902
32	0x3e3658a1	0.17807247
33	0x3e51ed04	0.2050057
34	0xbe969a32	-0.29414517
35	0xbe83115c	-0.25599182
36	0x3cacc3a1	0.021089377
37	0x3eacb68b	0.3373302
38	0xbe95da6e	-0.2926821
39	0xba829414	-0.0009962344
40	0xbe6642f6	-0.22486481
41	0x3e99a664	0.30009758
42	0x3e7d2d45	0.247243
43	0x3e4d3d7c	0.20042986
44	0xbea0fb05	-0.31441513
45	0x3e46e962	0.19424966
46	0xbdd54b6d	-0.10414777
47	0x3e9fe710	0.31230974
48	0x3da1219d	0.07867739
49	0x3ead4ef9	0.33849314

lstm_1_W f4 [1, 200, 47]
0	0xbe180d57	-0.14848839
1	0xbd2d247e	-0.04227113
2	0x3d839610	0.064251065
3	0x3d41ae24	0.047285214
4	0x3c8624c0	0.016374946
5	0xbc8a29f0	-0.0168657
6	0xbd2bde52	-0.041960068
7	0x3d572ccc	0.052532956
8	0x3d5e345c	0.054249153
9	0x3ce69da8	0.028151348
10	0xbe009fc4	-0.12560946
11	0xbd3540a0	-0.044251084
12	0xbdb5f1cc	-0.0888401
13	0x3c5e1c80	0.0135566
14	0x3dbfe6be	0.093701825
15	0x3e14b6b0	0.14522815
16	0xbe199f80	-0.1500225
17	0x3dcc68dc	0.09980938
18	0x3e1d877e	0.15383717
19	0xbc470750	-0.0121477395
20	0xbd0ec65e	-0.034857146
21	0xbdd24b72	-0.10268296
22	0x3d84ec66	0.06490402
23	0x3df13c18	0.1177904
24	0x3e14fc32	0.1454933
25	0x3d9c47b6	0.07630865
26	0xbd9554e8	-0.07291585
27	0xbca3b6b8	-0.019984588
28	0xbe0f8e0a	-0.14019027
29	0xbdf4cd11	-0.11953176
30	0xbe06c4da	-0.1316103
31	0xbdfe16c0	-0.12406683
32	0xbd69d480	-0.05708742
33	0xbd8e53f8	-0.069496095
34	0x3dc98574	0.09839907
35	0x3de4a8e8	0.11165029
36	0xbd093236	-0.03349515
37	0x3c882710	0.016620189
38	0xbe14ae31	-0.14519574
39	0xbd1714e6	-0.036885165
40	0x3e0de708	0.13857663
41	0x3cd96ac0	0.02654016
42	0x3d2870a4	0.041123047
43	0xbdccf0aa	-0.100068405
44	0x3d7fbd30	0.062436283
45	0xbdc03851	-0.093857415
46	0x3e6afc41	0.2294779
47	0x3e0b3328	0.13593733
48	0xbdbd6fb3	-0.092498206
49	0xbd2dccbc	-0.042431578
50	0x3ade4e80	0.0016960651
51	0x3d2cb5c0	0.042165518
52	0x3e05c922	0.13065007
53	0xbe130be9	-0.14360012
54	0x3e0b54fc	0.13606638
55	0x3da244c8	0.07923275
56	0xbd0bfe74	-0.034178212
57	0xbd909acc	-0.07060775
58	0x3db3d562	0.08780934
59	0x3e04824e	0.12940332
60	0xbd258a2e	-0.04041498
61	0xbcf3f7b0	-0.029781193
62	0xbdfb09c4	-0.12257722
63	0x3e0c690c	0.13711947
64	0x3d76d704	0.06026365
65	0x3d563f8c	0.052306697
66	0xbc1595b0	-0.009129927
67	0xbd8c22df	-0.06842589
68	0x3d9eb9f6	0.07750313
69	0xbddfd010	-0.10928357
70	0x3d4201e0	0.04736507
71	0x3db7edf8	0.08980936
72	0x3e1b1210	0.15143609
73	0x3d1530ab	0.036423367
74	0x3c2cad50	0.010539368
75	0x3d213118	0.03935346
76	0xbd872f97	-0.06600874
77	0x3d5e983c	0.0543444
78	0xbccaefe8	-0.0247726
79	0xbd094768	-0.033515364
80	0xbdf607b0	-0.12013185
81	0xbd593e68	-0.05303803
82	0xbe0d6dcc	-0.13811415
83	0xbe047331	-0.12934567
84	0x3c8278e8	0.015926793
85	0x3d6b3590	0.057424128
86	0xbc27af99	-0.010234737
87	0x3df7a8b4	0.120927244
88	0xbdd0ad4c	-0.10189304
89	0xbda30997	-0.079608135
90	0x3e048714	0.12942153
91	0xbd03ec04	-0.032207504
92	0xbde47800	-0.11155701
93	0xbd914ea1	-0.070950754
94	0xbda7e658	-0.081982315
95	0xbdd2fc18	-0.10301989
96	0x3de3c5b0	0.1112169
97	0x3db44410	0.088020444
98	0x3ddaa1d0	0.106753945
99	0xbe011d27	-0.12608777
100	0xbd179a60	-0.037012458
101	0x3da94eb0	0.082669616
102	0x3d3c0778	0.04590556
103	0x3b50e200	0.0031872988
104	0xbd85a02f	-0.06524693
105	0x3ca79228	0.020455435
106	0x3e1e3a52	0.15451935
107	0xbe12e22c	-0.1434409
108	0x3de22f98	0.11044234
109	0xbdbefc51	-0.09325469
110	0xbe1e529a	-0.15461197
111	0x3de21850	0.110397935
112	0xbd8a20a1	-0.06744505
113	0xbb256c40	-0.0025241524
114	0x3c1d92e0	0.009617537
115	0x3d50ef58	0.051009506
116	0x3db033e8	0.0860365
117	0xbdb94fb5	-0.09048406
118	0x3df7d87c	0.12101838
119	0x3df57d98	0.11986846
120	0x3d7d2fcc	0.06181316
121	0x3da0c1ca	0.07849462
122	0xbd440dca	-0.047864713
123	0x3c40cb3e	0.011767207
124	0xbe17a826	-0.14810237
125	0x3dcacaf4	0.099019915
126	0xbe10413a	-0.14087382
127	0x3dcac6fc	0.099012345
128	0xbd7c5604	-0.06160547
129	0x3d10a04c	0.03530912
130	0xbe0aa686	-0.13540086
131	0xbe170b6f	-0.14750455
132	0x3b8db460	0.004324481
133	0xbd6ff952	-0.05858738
134	0xbe08c463	-0.13356166
135	0xbd7f1884	-0.06227924
136	0x3dae3584	0.08506301
137	0x3c802768	0.01564379
138	0xbe171ea5	-0.14757784
139	0x3e149f20	0.14513826
140	0xbe1e0657	-0.15432106
141	0x3d65d1cc	0.05610828
142	0x3b7e1ec0	0.0038775653
143	0x3db4caf0	0.0882777
144	0xbe197bdc	-0.14988655
145	0x3de79824	0.113083154
146	0xb9b99600	-0.00035397708
147	0x3cbc72e8	0.02300401
148	0xbcd688e8	-0.026188329
149	0x3d765348	0.060138017
150	0xbde51924	-0.11186436
151	0x3dfd59ac	0.12370619
152	0x3dd36a74	0.10323039
153	0x3e17d532	0.14827421
154	0x3cbe7588	0.023249403
155	0x3e081d2e	0.13292381
156	0xbd5cdd7c	-0.05392216
157	0x3d3ccab8	0.046091765
158	0x3d9300b2	0.07177867
159	0x3c728c00	0.014803886
160	0xbe1dc4cb	-0.15407102
161	0xbd3b49fb	-0.04572485
162	0x3cf85620	0.030314505
163	0xbd813fd2	-0.06311001
164	0x3dda6d00	0.10665321
165	0xbd214098	-0.039368242
166	0x3d893822	0.067001596
167	0xbcbdbd99	-0.023161696
168	0x3d88cfc4	0.06680253
169	0x3d80a7fa	0.06282039
170	0xbe145ec2	-0.14489272
171	0x3e111930	0.14169765
172	0x3d134314	0.035952643
173	0xbe0bb195	-0.13641961
174	0x3dcb0490	0.099129796
175	0x3d44c850	0.048042595
176	0xbbac79c0	-0.005263537
177	0x3c69a3f0	0.014260277
178	0x3e15a610	0.14614129
179	0x3b44c500	0.0030024648
180	0x3d4b8c11	0.049694125
181	0xbdf87aa0	-0.12132764
182	0x3da32a20	0.07967019
183	0xbd4ec4f4	-0.050480798
184	0x3d30ea94	0.04319246
185	0x3c2b1340	0.010441601
186	0xbdb77fe5	-0.08959941
187	0x3e21e994	0.15811759
188	0xbdd6834e	-0.10474263
189	0x3d932b8a	0.07186039
190	0xbc526fa0	-0.012843996
191	0xbe112201	-0.14173128
192	0x3da5634c	0.0807558
193	0xbdbe1485	-0.092812575
194	0xbdc025fc	-0.09382245
195	0x3b305e80	0.0026911795
196	0x3def9d70	0.11699951
197	0x3dfa7d60	0.12230945
198	0x3d105204	0.035234466
199	0x3e03e8d0	0.1288178
200	0x3d81f574	0.063456446
201	0x3e04b6f8	0.12960422
202	0x3d3be5b0	0.045873344
203	0x3e11c462	0.1423507
204	0x3e05f182	0.13080409
205	0x3d5c6878	0.053810567
206	0xbc9d1650	-0.019175678
207	0xbde31b86	-0.11089234
208	0x3cbcc93e	0.023045179
209	0x3e0fbccc	0.14036864
210	0x3b897660	0.0041950196
211	0x3d2b0b7c	0.041759
212	0xbcba49b0	-0.022740215
213	0x3dba57f2	0.090988055
214	0xbdb6a90e	-0.089189634
215	0x3e1ec3be	0.15504357
216	0xbe03deac	-0.12877911
217	0xbd90ba63	-0.070668004
218	0xbd7227d0	-0.05912
219	0x3d9e71c8	0.07736546
220	0xbe1b0257	-0.15137611
221	0xbcb9fda0	-0.022703946
222	0x3dc0e644	0.0941892
223	0xbc7c2970	-0.015390739
224	0xbc4fa910	-0.012674585
225	0x3da532a6	0.08066301
226	0x3d89215c	0.06695816
227	0xbde37f4e	-0.11108266
228	0x3dae3f3c	0.08508155
229	0x3d9e5b30	0.077322364
230	0x3da5d244	0.080967456
231	0x3d5586f0	0.05213064
232	0x3d813942	0.06309749
233	0xbdb222f3	-0.08698072
234	0xbde48afb	-0.11159321
235	0x3cf61750	0.030040413
236	0x3e0f6864	0.14004666
237	0x3ad6c080	0.0016384274
238	0x3bb26100	0.005443692
239	0x3d8c2a08	0.06843954
240	0xbdec094a	-0.11525209
241	0xbde64da8	-0.112452805
242	0x3d7f2f28	0.06230083
243	0xbc821dd0	-0.015883356
244	0xbdc704cc	-0.09717712
245	0x3e0aee7e	0.1356754
246	0xbab32e80	-0.0013670474
247	0xbdcde852	-0.10054077
248	0x3c7048b0	0.014665768
249	0x3e0a2154	0.13489276
250	0xbd9de8ba	-0.07710405
251	0xba6ee100	-0.0009112507
252	0x3d3cdd08	0.04610923
253	0x3dee78f4	0.11644164
254	0x3dae7f18	0.08520335
255	0xbd8507ce	-0.06495629

lstm_1_R f4 [1, 200, 50]
0	0xbd3082bf	-0.04309344
1	0xbd73a76d	-0.05948584
2	0x3d1ee415	0.038791735
3	0xbdd627f1	-0.10456837
4	0x3d1c6679	0.038183663
5	0xbc3e4cc7	-0.011614985
6	0xbda96017	-0.08270281
7	0x3b976cff	0.0046211476
8	0x3e285698	0.16439283
9	0x3dec1c7e	0.11528872
10	0xbc733d43	-0.014846149
11	0xbc8d52e0	-0.017251432
12	0xbdf5edf7	-0.12008279
13	0x3b21fe3f	0.0024718193
14	0x3d864e88	0.065579474
15	0x3cb7a4b7	0.02241741
16	0xbe0ef13e	-0.13959214
17	0xbcbc9864	-0.023021884
18	0xbd1bbaae	-0.03801983
19	0xbd9e0c06	-0.07717137
20	0xbccb3264	-0.024804302
21	0xbca58e26	-0.020209383
22	0x3df454d1	0.1193024
23	0xbcb7a080	-0.0224154
24	0x3d25a2e0	0.040438533
25	0xbd19da16	-0.0375615
26	0x3d33b9a4	0.043878213
27	0x3ceb3130	0.028709978
28	0x3d2b1c17	0.041774835
29	0xbda1b7f6	-0.07896416
30	0x3dd330d5	0.10312048
31	0x3d456b1b	0.048197847
32	0x3d69793a	0.057000376
33	0x3ca160a0	0.019699395
34	0x3ba68f7f	0.005083024
35	0xbd93b3b4	-0.0721201
36	0xbc97861c	-0.018496566
37	0xbc386dcb	-0.011256645
38	0xbdaf313d	-0.08554313
39	0xbd8099c5	-0.06279329
40	0x3db60478	0.08887571
41	0xbd895d02	-0.06707193
42	0xbd52c03d	-0.051452864
43	0x3da83670	0.08213508
44	0x3dfc5e5d	0.12322686
45	0xbd7074b9	-0.058705065
46	0x3d838493	0.06421771
47	0xbc0a3ed4	-0.008437831
48	0x3b70bc22	0.003673323
49	0x3d60879b	0.054816823
50	0x3b1c5676	0.0023855246
51	0x3db986df	0.09058928
52	0x3d0ad111	0.033890788
53	0xbc8a4270	-0.016877383
54	0x3c59876d	0.013276917
55	0x3e0fc959	0.14041652
56	0x3d8bb654	0.06821886
57	0xbc22d199	-0.009937667
58	0x3cde2dca	0.027121443
59	0xbdc46f4e	-0.09591542
60	0x3c4ac756	0.012376627
61	0x3d0912e3	0.033465277
62	0x3c8a26c5	0.01686419
63	0xbd98c739	-0.07459874
64	0xbe331c29	-0.17491211
65	0xbd338515	-0.04382809
66	0xbdeb88e7	-0.115007214
67	0xbd520860	-0.05127752
68	0x3b8e4386	0.0043415455
69	0x3d3e387b	0.046440583
70	0x3d9c95d5	0.07645766
71	0xbccb09a0	-0.024784863
72	0x3dba0c79	0.0908441
73	0x3d09eedb	0.033675056
74	0xbdd84d37	-0.105616026
75	0x3d833e66	0.06408386
76	0x3d26c51d	0.040715326
77	0x3d8029e1	0.06257988
78	0xbd5046b6	-0.050848685
79	0xbd2a58ee	-0.041588716
80	0xbd26b546	-0.04070022
81	0x3d530ac3	0.051523935
82	0x3d8174b5	0.06321088
83	0x3d109814	0.035301283
84	0x3d5a4f23	0.053298127
85	0x3c4ae190	0.01238288
86	0x3c9ea6b6	0.019366603
87	0x3cc88ad9	0.02448027
88	0x3d80c61a	0.06287785
89	0xbd823f40	-0.0635972
90	0xbc6097e8	-0.013708092
91	0xbd92ce41	-0.07168246
92	0x3c86dec7	0.01646365
93	0xbc72fd97	-0.014830968
94	0xbd040fd3	-0.032241654
95	0xbca8f0af	-0.02062258
96	0xbba0e108	-0.0049096383
97	0x3e08819a	0.13330689
98	0x3c72359e	0.014783291
99	0xbcd862b1	-0.026414247
100	0x3d5ca7ab	0.053870838
101	0x3dc6aad5	0.097005524
102	0x3d749333	0.059710693
103	0x3d2e641d	0.042575944
104	0x3e01a952	0.12662247
105	0xbcb163da	-0.021654058
106	0x3d495be4	0.0491599
107	0x3dbd6096	0.09246938
108	0xbcb9597a	-0.022625674
109	0xbc063985	-0.008192425
110	0x3d480dec	0.048841402
111	0x3be03185	0.0068418407
112	0xbc8dc9e6	-0.017308187
113	0xbbb8376a	-0.0056218402
114	0x3de1da0f	0.110279195
115	0x3da880d1	0.08227695
116	0xbd42509c	-0.047440156
117	0x3c8ce3f8	0.017198548
118	0xbd4ee7fe	-0.050514214
119	0xbd85203f	-0.06500291
120	0x3c97f1e9	0.018547969
121	0xbbbc7bc7	-0.00575206
122	0xbe1c44bc	-0.15260595
123	0x3c256067	0.010093785
124	0x3e0c3740	0.13692951
125	0x3d299d02	0.0414095
126	0xbdb5182e	-0.088425025
127	0xbd469599	-0.04848251
128	0xbc195039	-0.0093575055
129	0xbd771293	-0.060320448
130	0x3bb313e0	0.005465016
131	0x3d833444	0.06406453
132	0xbdd80030	-0.10546911
133	0xbcadf823	-0.021236485
134	0xbddc0bf4	-0.107444674
135	0xbdedd3c1	-0.116126545
136	0x3db36c0f	0.08760845
137	0xbbf1d45c	-0.0073800515
138	0xbdd6e047	-0.10491996
139	0x3d256038	0.040374964
140	0xbcc8bfe3	-0.024505561
141	0xbde869c0	-0.11348295
142	0xbd6030d8	-0.05473408
143	0xbd83b13e	-0.06430291
144	0x3d1238b8	0.035698622
145	0xbd28459f	-0.04108202
146	0x3d68dc83	0.05685092
147	0xbd71f69a	-0.05907307
148	0x3dc78132	0.09741439
149	0x3cf0748d	0.02935245
150	0xbdc0e0dc	-0.094178885
151	0x3d6e68db	0.058205467
152	0xbd6d0bd0	-0.057872593
153	0xbd36cf93	-0.044631552
154	0xbd992d46	-0.07479338
155	0xba386303	-0.0007033797
156	0xbd4fc6a1	-0.050726537
157	0x3d84def1	0.06487835
158	0x3d91fa35	0.07127801
159	0x3d23e16d	0.040009905
160	0x3c6d339e	0.0144776385
161	0x3d8d4e79	0.06899733
162	0x3e2550ec	0.1614415
163	0x3dc72a36	0.09724848
164	0xbc14854d	-0.0090649845
165	0x3d8297ea	0.063766316
166	0x3e03993c	0.12851423
167	0xbd8aa5e0	-0.067699194
168	0xbdaeeb97	-0.08541029
169	0x3e66ddf8	0.22545612
170	0x3c8e9d05	0.017408857
171	0xbd544df9	-0.051832173
172	0xbd823810	-0.06358349
173	0x3d060428	0.032718807
174	0xbe10e792	-0.14150837
175	0xbd15bfe6	-0.03655996
176	0xbc449b2f	-0.011999889
177	0x3e1aa131	0.15100552
178	0x3d556793	0.05210073
179	0xbdc7e1c6	-0.0975986
180	0xbd0270a2	-0.031845696
181	0x3d8de043	0.0692754
182	0xbde6e29d	-0.11273692
183	0x3d3f2301	0.04666424
184	0xbd1639db	-0.03667627
185	0x3b971adf	0.0046113576
186	0x3c79d7fc	0.015249249
187	0x3d9cb99f	0.07652592
188	0x3d3f283d	0.046669234
189	0xbd19ac24	-0.03751768
190	0x3d0e87e0	0.03479755
191	0xbdc1c1c8	-0.09460789
192	0xbd13dc6b	-0.03609888
193	0x3d6c58a5	0.057701726
194	0xbde52ea3	-0.11190536
195	0xbc743574	-0.014905322
196	0x3c2af71a	0.01043489
197	0x3c035940	0.008016884
198	0xbdc2fc0a	-0.09520729
199	0xbde4322c	-0.11142382
200	0x3d670207	0.056398418
201	0xbda47469	-0.08030016
202	0xbdfbe3bd	-0.12299297
203	0x3d256e93	0.040388655
204	0x3de0412b	0.1094993
205	0xbd398698	-0.045294374
206	0x3d52d34e	0.051471047
207	0xb9a07ce0	-0.00030610617
208	0x3d297777	0.041373696
209	0xbc2f1112	-0.010685222
210	0xbdebc233	-0.1151165
211	0x3b100cfe	0.00219804
212	0x3deb9702	0.11503412
213	0x3c97dfcb	0.01853933
214	0xbd89d9f5	-0.06731025
215	0x3dd59fb3	0.10430851
216	0xbd903992	-0.07042231
217	0x3c852c47	0.016256465
218	0x3b7f7d50	0.0038984604
219	0x3e0131d9	0.12616672
220	0x3c802564	0.01564283
221	0x3d726dc8	0.059186727
222	0xbe048e04	-0.129448
223	0x3b37af0a	0.0028027915
224	0x3d692197	0.0569168
225	0x3e3c19af	0.18369173
226	0xbcbd2cbc	-0.02309262
227	0x3d93c6ce	0.07215653
228	0xbdc3fbc4	-0.09569505
229	0xbd0b379a	-0.033988573
230	0xbdaeacf8	-0.08529085
231	0x3c57756f	0.013150557
232	0xbd9e1a7f	-0.077198975
233	0xbde3b761	-0.11118961
234	0xbd9783db	-0.07398196
235	0x3ba747a4	0.005104976
236	0xbde7eb06	-0.11324124
237	0x3dafcd51	0.08584083
238	0x3b8e30e2	0.0043393234
239	0xbd192109	-0.03738502
240	0xbcd505ac	-0.026003681
241	0x3d4cf10e	0.050034575
242	0x3dbf1ff2	0.09332265
243	0x3b9d1e14	0.0047948454
244	0x3b05a5dc	0.002039305
245	0xbce51a28	-0.027966574
246	0xbd61f5b7	-0.055165973
247	0xbd9a0a99	-0.075215526
248	0x3d5d0b26	0.05396571
249	0x3d85b01d	0.065277316
250	0x3d024b88	0.031810313
251	0x3c5bb39a	0.01340952
252	0xbb23da86	-0.0025002076
253	0x3d8883f7	0.06665795
254	0x3de9a732	0.11408843
255	0xbb09f176	-0.0021048463

lstm_1_B f4 [1, 400]
0	0xbc7876db	-0.015165056
1	0xbb879409	-0.00413752
2	0xbc16b7a3	-0.009199056
3	0xbbb89be4	-0.005633818
4	0xbc113828	-0.008863486
5	0xbb6061b5	-0.0034237925
6	0xbbdbaef8	-0.0067042075
7	0xbc0c508b	-0.008564125
8	0xbbf5527b	-0.007486639
9	0xbc920dcd	-0.017828846
10	0xbb211e2e	-0.002458464
11	0xbb9fc85d	-0.00487618
12	0xbc1d3bf2	-0.009596812
13	0xbc13f1ad	-0.009029788
14	0xbbfac3cb	-0.007652735
15	0xbb871310	-0.0041221455
16	0xbba3cf3f	-0.004999071
17	0xbc8f09e6	-0.017460775
18	0xbc0cb871	-0.008588896
19	0xbb708a55	-0.0036703546
20	0xbbe99d02	-0.0071293125
21	0xbd4cfe6b	-0.05004732
22	0xbbb75e95	-0.005595992
23	0xbbebf2bc	-0.007200567
24	0xbcca35ac	-0.024683796
25	0xbbf15575	-0.0073649236
26	0xbb8becff	-0.0042701955
27	0xbacb3e21	-0.0015506187
28	0xba6f7e75	-0.000913597
29	0xbbc5a5fb	-0.0060317493
30	0xbc208b82	-0.009798886
31	0xbc3e3674	-0.011609662
32	0xbb43719f	-0.0029822362
33	0xbba0e486	-0.0049100546
34	0xbc6b272b	-0.0143526
35	0xbc542187	-0.012947447
36	0xbc8b1e2c	-0.01698216
37	0xbbbc00b5	-0.005737389
38	0xbc0700cb	-0.008239935
39	0xbd8f63d9	-0.07001466
40	0xbc2a5103	-0.010395291
41	0xbc12d2b8	-0.008961372
42	0xbb22cfa1	-0.0024842995
43	0xbbb9c0a0	-0.0056687146
44	0xbc1028d1	-0.008798794
45	0xbb98af23	-0.00465955
46	0xbc2a2133	-0.010383892
47	0xbbd9ead7	-0.0066503095
48	0xbc10af72	-0.008830892
49	0xbb39a25f	-0.002832554
50	0xbc74c3b8	-0.014939241
51	0xbb8c0af0	-0.004273765
52	0xbc1139ca	-0.008863876
53	0xbbb7d8c1	-0.005610556
54	0xbc11ff58	-0.008910976
55	0xbb60e2b9	-0.0034314825
56	0xbbdb24c6	-0.0066877333
57	0xbc080fab	-0.008304517
58	0xbbf63445	-0.007513555
59	0xbc96d133	-0.0184103
60	0xbb13cbc5	-0.0022551876
61	0xbbaf243a	-0.0053448947
62	0xbc196c70	-0.009364232
63	0xbc22f5e6	-0.009946322
64	0xbbf6e546	-0.0075346557
65	0xbb9090d6	-0.004411797
66	0xbba3a472	-0.0049939686
67	0xbc8ac6b3	-0.01694045
68	0xbc07d21f	-0.008289843
69	0xbb6e9832	-0.0036406633
70	0xbbe9daa8	-0.0071366616
71	0xbd4bf8ec	-0.049797937
72	0xbbb0bf34	-0.005393887
73	0xbbf31dfc	-0.007419346
74	0xbccdf071	-0.025139065
75	0xbbe2f09b	-0.006925655
76	0xbb84d404	-0.0040535945
77	0xbae05c00	-0.0017117262
78	0xba8ffa12	-0.0010984561
79	0xbbca8d6a	-0.0061814087
80	0xbc1cd244	-0.009571616
81	0xbc2a066d	-0.010377509
82	0xbb677a0a	-0.0035320544
83	0xbba9535f	-0.0051674093
84	0xbc6b7215	-0.014370461
85	0xbc602eee	-0.013683064
86	0xbc88b453	-0.016687548
87	0xbbcd48fd	-0.0062648044
88	0xbc0011f9	-0.007816785
89	0xbd8eeaba	-0.06978364
90	0xbc275fe3	-0.010215732
91	0xbc15fcc6	-0.009154504
92	0xbb01b6f2	-0.0019792882
93	0xbba817f8	-0.0051298104
94	0xbc0f6874	-0.008752931
95	0xbb992531	-0.004673623
96	0xbc302749	-0.010751554
97	0xbbd3968b	-0.006457155
98	0xbc13756f	-0.009000166
99	0xbb4059c0	-0.002935037
100	0x3f800000	1.0
101	0x3f800000	1.0
102	0x3f800000	1.0
103	0x3f800000	1.0
104	0x3f800000	1.0
105	0x3f800000	1.0
106	0x3f800000	1.0
107	0x3f800000	1.0
108	0x3f800000	1.0
109	0x3f800000	1.0
110	0x3f800000	1.0
111	0x3f800000	1.0
112	0x3f800000	1.0
113	0x3f800000	1.0
114	0x3f800000	1.0
115	0x3f800000	1.0
116	0x3f800000	1.0
117	0x3f800000	1.0
118	0x3f800000	1.0
119	0x3f800000	1.0
120	0x3f800000	1.0
121	0x3f800000	1.0
122	0x3f800000	1.0
123	0x3f800000	1.0
124	0x3f800000	1.0
125	0x3f800000	1.0
126	0x3f800000	1.0
127	0x3f800000	1.0
128	0x3f800000	1.0
129	0x3f800000	1.0
130	0x3f800000	1.0
131	0x3f800000	1.0
132	0x3f800000	1.0
133	0x3f800000	1.0
134	0x3f800000	1.0
135	0x3f800000	1.0
136	0x3f800000	1.0
137	0x3f800000	1.0
138	0x3f800000	1.0
139	0x3f800000	1.0
140	0x3f800000	1.0
141	0x3f800000	1.0
142	0x3f800000	1.0
143	0x3f800000	1.0
144	0x3f800000	1.0
145	0x3f800000	1.0
146	0x3f800000	1.0
147	0x3f800000	1.0
148	0x3f800000	1.0
149	0x3f800000	1.0
150	0xba09270a	-0.00052319525
151	0x3a7f3b60	0.00097363256
152	0x3a0ce442	0.0005374589
153	0xba8ba7ad	-0.001065483
154	0x3ad2d17f	0.0016084163
155	0x3ae0d402	0.0017153027
156	0xba336f8b	-0.00068449293
157	0x399216e2	0.0002786434
158	0x3b0f08f5	0.0021825407
159	0x3ac2043f	0.0014802291
160	0x3ab2b92c	0.0013635508
161	0xba883849	-0.0010392751
162	0x3a58c52f	0.0008269129
163	0x3a3e595e	0.00072612416
164	0xba5606d2	-0.00081644685
165	0x3a32d303	0.00068216043
166	0x3a5fda9e	0.00085393514
167	0xb9e87b2a	-0.00044342253
168	0x39f2a5e4	0.00046281435
169	0x3a876193	0.0010328762
170	0x3b24fb18	0.0025174078
171	0xbd62aad4	-0.055338696
172	0xbad18c8e	-0.0015987323
173	0xbb835144	-0.0040074904
174	0xbb804c7d	-0.003915368
175	0xb91cea8f	-0.00014964699
176	0xba919e0b	-0.0011109723
177	0xb9ad80b2	-0.00033093017
178	0x3988085e	0.00025946175
179	0xba564134	-0.0008173168
180	0xbac728f6	-0.0015194702
181	0x3ae97502	0.001781136
182	0xb98b2b03	-0.00026544192
183	0xba25bbf5	-0.0006322258
184	0xb9fd706b	-0.00048339678
185	0xba5327c8	-0.0008054939
186	0x3b744a14	0.00372756
187	0xba677fdd	-0.0008831004
188	0x3a0c197b	0.0005344373
189	0xbc826c8d	-0.015920902
190	0x3a49b159	0.00076939684
191	0x3a15080d	0.00056850986
192	0x3955c7b7	0.00020387663
193	0xb98eb434	-0.00027218612
194	0xba0418f0	-0.00050391164
195	0x3a91e8d8	0.0011132015
196	0x3a72cd9b	0.0009262205
197	0xba23d2db	-0.00062493765
198	0x3ac9a1ea	0.0015383337
199	0xb9809caa	-0.00024530786
200	0x00000000	0.0
201	0x00000000	0.0
202	0x00000000	0.0
203	0x00000000	0.0
204	0x00000000	0.0
205	0x00000000	0.0
206	0x00000000	0.0
207	0x00000000	0.0
208	0x00000000	0.0
209	0x00000000	0.0
210	0x00000000	0.0
211	0x00000000	0.0
212	0x00000000	0.0
213	0x00000000	0.0
214	0x00000000	0.0
215	0x00000000	0.0
216	0x00000000	0.0
217	0x00000000	0.0
218	0x00000000	0.0
219	0x00000000	0.0
220	0x00000000	0.0
221	0x00000000	0.0
222	0x00000000	0.0
223	0x00000000	0.0
224	0x00000000	0.0
225	0x00000000	0.0
226	0x00000000	0.0
227	0x00000000	0.0
228	0x00000000	0.0
229	0x00000000	0.0
230	0x00000000	0.0
231	0x00000000	0.0
232	0x00000000	0.0
233	0x00000000	0.0
234	0x00000000	0.0
235	0x00000000	0.0
236	0x00000000	0.0
237	0x00000000	0.0
238	0x00000000	0.0
239	0x00000000	0.0
240	0x00000000	0.0
241	0x00000000	0.0
242	0x00000000	0.0
243	0x00000000	0.0
244	0x00000000	0.0
245	0x00000000	0.0
246	0x00000000	0.0
247	0x00000000	0.0
248	0x00000000	0.0
249	0x00000000	0.0
250	0x00000000	0.0
251	0x00000000	0.0
252	0x00000000	0.0
253	0x00000000	0.0
254	0x00000000	0.0
255	0x00000000	0.0
