training/src/main/python/model.onnx (onnx, 89389 bytes, 4 tensors)

StatefulPartitionedCall/sequential/dense/MatMul/ReadVariableOp:0 f4 [50, 1]
0	0x3cb02fc9	0.02150716
1	0xbe69e4f0	-0.22841239
2	0xbdb4097a	-0.0879087
3	0xbd6beb1d	-0.05759727
4	0xbe74cd2d	-0.23906393
5	0x3e534556	0.20631918
6	0xbe1f2a54	-0.1554349
7	0xbeafde8c	-0.34349477
8	0xbe23fc9e	-0.16014335
9	0xbdd26105	-0.10272411
10	0x3df32b8d	0.11873541
11	0x3c52e3ea	0.012871722
12	0x3ea81566	0.32828826
13	0x3c88f0c0	0.016716361
14	0x3e69b479	0.22822751
15	0x3e90c430	0.2827468
16	0xbe0abeef	-0.13549398
17	0x3e22bc63	0.15892176
18	0xbe87f842	-0.26556593
19	0x3df8783d	0.12132309
20	0xbd01693f	-0.03159451
21	0xbe36c18e	-0.17847273
22	0xbdbdb0b9	-0.09262223
23	0xbc9acc2a	-0.018896181
24	0x3e17c1f3	0.1482008
25	0xbe44eaa5	-0.19230135
26	0x3d2d64ba	0.04233239
27	0x3e406e1c	0.18792003
28	0x3e40904f	0.1880505
29	0x3e492c74	0.19645864
30	0x3e522cff	0.20524977
31	0x3d77b153	0.060471844
32	0x3e8d8435	0.27639928
33	0xbe30b53a	-0.17256632
34	0x3e5534e4	0.20820957
35	0x3d36804e	0.044555955
36	0x3e25a039	0.16174401
37	0xbe3dd819	-0.18539466
38	0xbd762266	-0.0600914
39	0xbd4cac86	-0.04996922
40	0xbe3c2283	-0.1837254
41	0x3cc73497	0.024317069
42	0xbdcef432	-0.1010517
43	0xbe90f2b9	-0.28310183
44	0xbe53eea8	-0.20696509
45	0x3a18ad14	0.00058241305
46	0x3d3d6695	0.046240408
47	0x3dc9ff2b	0.098631226
48	0xbdb06821	-0.08613611
49	0xbc949a5c	-0.01814001

Func/StatefulPartitionedCall/sequential/lstm/PartitionedCall/input/_13:0 f4 [200]
0	0xbc0b88bc	-0.008516487
1	0xbc178fe2	-0.009250613
2	0xbbb74e90	-0.005594082
3	0xbb124c0e	-0.0022323164
4	0x3bcb8021	0.0062103425
5	0xbbbaa505	-0.0056959414
6	0xbc017c42	-0.0079031605
7	0x3a9d3728	0.0011994587
8	0xbc2252b5	-0.009907414
9	0xbb01c932	-0.001980376
10	0xbcdf7438	-0.027277097
11	0xba5f648e	-0.0008521759
12	0xbc50834a	-0.012726614
13	0xbadd758b	-0.0016895992
14	0xbcf8ac12	-0.030355487
15	0xbcb21831	-0.021740051
16	0xbc24191e	-0.010015754
17	0xbbe0e1d8	-0.00686286
18	0x3b47fedc	0.0030516898
19	0xbc7bbf6c	-0.015365463
20	0x3ba3e214	0.005001316
21	0xbbb423e1	-0.005497441
22	0x3b97ca3c	0.0046322625
23	0xbbfe3a55	-0.0077584186
24	0xbc58cd86	-0.013232594
25	0xbccf9375	-0.025338868
26	0xbcf5cb2a	-0.030004103
27	0xbcd05cf0	-0.025434941
28	0x3b8b7984	0.004256429
29	0x3b746d19	0.0037296473
30	0xbc3c90af	-0.011509105
31	0xbb9ef08c	-0.0048504528
32	0xbd1eb6e5	-0.03874864
33	0xbb2e1f3f	-0.0026568917
34	0xbca95ea6	-0.020675015
35	0x3be4d66a	0.006983568
36	0x3b5a7673	0.0033334761
37	0xbcbe7ccf	-0.023252873
38	0xbbc6443f	-0.006050616
39	0xbc082eb2	-0.008311914
40	0x3c52daf7	0.012869588
41	0x3b24cf4a	0.0025147968
42	0xbc220c53	-0.009890634
43	0xbc325085	-0.010883455
44	0xbd0c0d6d	-0.03419249
45	0xbd5e28c8	-0.05423811
46	0xbcab2962	-0.020893756
47	0xbb8ece6d	-0.004358104
48	0x3bb36e1f	0.005475774
49	0xbc638de8	-0.013888814
50	0x3f800000	1.0
51	0x3f800000	1.0
52	0x3f800000	1.0
53	0x3f800000	1.0
54	0x3f800000	1.0
55	0x3f800000	1.0
56	0x3f800000	1.0
57	0x3f800000	1.0
58	0x3f800000	1.0
59	0x3f800000	1.0
60	0x3f800000	1.0
61	0x3f800000	1.0
62	0x3f800000	1.0
63	0x3f800000	1.0
64	0x3f800000	1.0
65	0x3f800000	1.0
66	0x3f800000	1.0
67	0x3f800000	1.0
68	0x3f800000	1.0
69	0x3f800000	1.0
70	0x3f800000	1.0
71	0x3f800000	1.0
72	0x3f800000	1.0
73	0x3f800000	1.0
74	0x3f800000	1.0
75	0x3f800000	1.0
76	0x3f800000	1.0
77	0x3f800000	1.0
78	0x3f800000	1.0
79	0x3f800000	1.0
80	0x3f800000	1.0
81	0x3f800000	1.0
82	0x3f800000	1.0
83	0x3f800000	1.0
84	0x3f800000	1.0
85	0x3f800000	1.0
86	0x3f800000	1.0
87	0x3f800000	1.0
88	0x3f800000	1.0
89	0x3f800000	1.0
90	0x3f800000	1.0
91	0x3f800000	1.0
92	0x3f800000	1.0
93	0x3f800000	1.0
94	0x3f800000	1.0
95	0x3f800000	1.0
96	0x3f800000	1.0
97	0x3f800000	1.0
98	0x3f800000	1.0
99	0x3f800000	1.0
100	0xbb0a668e	-0.0021118256
101	0x3b82c9c4	0.0039913375
102	0x3bd29ab7	0.006427135
103	0x3c0092c2	0.00784749
104	0x3bab3246	0.005224499
105	0xbba86e59	-0.0051401076
106	0x3b9109ab	0.0044262013
107	0x3bcea012	0.006305703
108	0x3bbb7509	0.005720739
109	0x3c0238b9	0.007948094
110	0xbb9c4ba0	-0.0047697574
111	0x37f35c70	2.9010902e-05
112	0xbbc9b4a9	-0.0061555696
113	0x39ddef56	0.00042330724
114	0xbbb90fb2	-0.005647623
115	0xbbb4fc27	-0.005523223
116	0x3b2f61b6	0.002676112
117	0xbb9bd004	-0.004755022
118	0x3bc595b9	0.006029811
119	0xbb5b9b00	-0.0033509135
120	0x3c144f63	0.00905213
121	0x3baa4988	0.005196754
122	0x3bc408b3	0.0059824823
123	0x39b79f38	0.00035023107
124	0xbbdaced5	-0.0066774883
125	0x3ba5a84a	0.005055462
126	0xbb99984b	-0.004687344
127	0xbbb822f6	-0.005619402
128	0xbbade0e0	-0.005306348
129	0xbbdab672	-0.006674581
130	0xbbaa9c41	-0.005206615
131	0xbb950f1e	-0.0045489212
132	0xbbcb26ed	-0.0061997087
133	0x3bd16ad5	0.006390909
134	0xbbb69789	-0.0055722636
135	0xbb3a7cd7	-0.0028455758
136	0xbb340e61	-0.002747439
137	0x3b47a0df	0.0030460877
138	0x3b1f080b	0.0024266269
139	0x3bd68159	0.006546181
140	0x3b733697	0.0037111396
141	0x3aa25ff9	0.0012388221
142	0x3b8305a4	0.003998475
143	0x3b81888a	0.0039530443
144	0x3bc7fb64	0.006102966
145	0xbc822a94	-0.015889443
146	0xbbec5d2a	-0.0072132545
147	0xbb9b2baa	-0.00473543
148	0x3bd39861	0.006457374
149	0x3c2da562	0.010598512
150	0xbc0ddafa	-0.008658165
151	0xbc1ae1cf	-0.009453251
152	0xbbaa0298	-0.0051882975
153	0xbb54630e	-0.0032407674
154	0x3bd2c552	0.006432214
155	0xbbafa69c	-0.0053604376
156	0xbc02bd2a	-0.007979671
157	0x39d66145	0.00040889732
158	0xbc322cd8	-0.010874949
159	0xbb1cb39a	-0.0023910762
160	0xbcdb75a6	-0.026789498
161	0xba835d5b	-0.0010022329
162	0xbc5ef583	-0.013608339
163	0xbb014f02	-0.001973093
164	0xbd0243dd	-0.031803
165	0xbca62bb8	-0.020284519
166	0xbc30ac2a	-0.010783235
167	0xbbcae652	-0.006192007
168	0x3b4a85ce	0.0030902508
169	0xbc7b98a4	-0.015356217
170	0x3b8683e1	0.0041050767
171	0xbbd649f1	-0.006539576
172	0x3b9599b3	0.0045654415
173	0xbbf9da64	-0.007624911
174	0xbc5a739b	-0.013333227
175	0xbcd8afac	-0.026450954
176	0xbce9ff84	-0.028564222
177	0xbcdc77fe	-0.026912685
178	0x3b8f3b2d	0.004371068
179	0x3b3e1500	0.0029004216
180	0xbc260286	-0.010132438
181	0xbb9bb6ce	-0.0047520166
182	0xbd1ce38a	-0.038302936
183	0xbaa04697	-0.0012228069
184	0xbca7ebbf	-0.020498155
185	0x3be0297c	0.006840883
186	0x3b4af003	0.0030965812
187	0xbcbf1693	-0.023326194
188	0xbbd4e722	-0.0064972797
189	0xbc0a5cea	-0.008445004
190	0x3c4bf1f0	0.012447819
191	0x3b1bf6de	0.0023798267
192	0xbc2e9abd	-0.01065701
193	0xbc37ac14	-0.01121046
194	0xbd0c639b	-0.03427468
195	0xbd5e513d	-0.054276694
196	0xbca633e8	-0.020288423
197	0xbba8c03f	-0.0051498706
198	0x3ba8cfdc	0.005151732
199	0xbc5835d4	-0.013196427

Func/StatefulPartitionedCall/sequential/lstm/PartitionedCall/input/_12:0 f4 [50, 200]
0	0xbd401200	-0.046892166
1	0x3ce6f215	0.028191606
2	0x3cf418dd	0.029797012
3	0x3d381bde	0.04494845
4	0x3ce71e49	0.028212683
5	0x3cd0bd2a	0.025480825
6	0x3da726d8	0.08161706
7	0x3dd71c91	0.105034955
8	0x3bdc1b60	0.0067171305
9	0x3ce9d73e	0.028545018
10	0xbdc4e4d8	-0.09613961
11	0x3d7cba39	0.061701033
12	0x3d04e976	0.03244921
13	0xbd6dfc73	-0.058102082
14	0x3d08c230	0.033388317
15	0xbd4d8445	-0.05017497
16	0xbca9499b	-0.02066498
17	0xbc0f74a1	-0.008755834
18	0x3dea409d	0.11438105
19	0x3dd204e3	0.10254838
20	0x3d17fc34	0.037105754
21	0x3cbe2a57	0.023213549
22	0xbcdb85eb	-0.026797256
23	0x3caacbe6	0.02084918
24	0x3d4588db	0.04822622
25	0x3daabceb	0.083368145
26	0xbc7ef65f	-0.015561669
27	0x3c9d38f0	0.019192189
28	0x3d29a8af	0.041420635
29	0xbcc845ef	-0.02444741
30	0x3c9b860b	0.018984815
31	0xbd1aaa7b	-0.03776024
32	0xbd19994e	-0.03749972
33	0xbe08d306	-0.13361749
34	0x3cb0b162	0.021568958
35	0xbd98d982	-0.07463361
36	0xbdc459f7	-0.09587472
37	0xbbf19213	-0.0073721497
38	0xbd1e790d	-0.03868966
39	0xbd094c12	-0.033519812
40	0xbd39e044	-0.045379892
41	0xbd5ae366	-0.05343952
42	0xbd86ed50	-0.065882325
43	0xbbadf641	-0.005308897
44	0x3cb92afc	0.022603504
45	0xbd82a3b9	-0.06378884
46	0x3c29dbf8	0.010367386
47	0xbdcd7c84	-0.10033515
48	0x3b82654d	0.003979361
49	0xbdbcadec	-0.092128605
50	0x3d999032	0.07498206
51	0x3e51f3a7	0.20503102
52	0xbd56f017	-0.05247506
53	0x3c1c527d	0.009541151
54	0xbb507d2c	-0.003181289
55	0x3c7854fe	0.0151569825
56	0xbcc1720c	-0.023613952
57	0x3da03dd1	0.078242905
58	0xbc844f56	-0.016151112
59	0x3e19517e	0.14972493
60	0xbd452938	-0.048135012
61	0x3daa1975	0.08305637
62	0x3dc1b688	0.09458643
63	0xbd01cf37	-0.031691756
64	0xbdbb0f94	-0.09133831
65	0xbcdedce8	-0.027204946
66	0xbd52fc73	-0.051510286
67	0x3e357ff9	0.17724599
68	0x3d3b10a5	0.04567017
69	0xbd45a10b	-0.048249286
70	0xbd608e17	-0.054823007
71	0x3d4032d7	0.046923485
72	0xbdd43335	-0.103613295
73	0xbd8c920d	-0.068637945
74	0x3dee126d	0.11624608
75	0x3d186941	0.037209753
76	0x3d1f0464	0.038822547
77	0xbcc07694	-0.023494042
78	0xbddc5a44	-0.10759404
79	0x3d2cecd3	0.04221804
80	0xbd2a5e89	-0.041594062
81	0x3d8ebcee	0.06969629
82	0xbd766a7d	-0.06016015
83	0x3dfe7daf	0.12426316
84	0x3e022218	0.12708318
85	0xba009704	-0.00049053156
86	0x3ccb9b5f	0.02485436
87	0x3d49c48d	0.04925971
88	0xbd3b2753	-0.0456918
89	0xbcf0c19a	-0.029389191
90	0x3dd1b48f	0.10239517
91	0xbd54afd3	-0.05192549
92	0xbd9e09d7	-0.077167206
93	0x3bfbf46d	0.00768905
94	0x3d1faa37	0.03898069
95	0x3c3f06ad	0.0116593065
96	0xbd12204f	-0.035675343
97	0x3b345de9	0.0027521795
98	0x3d5082ab	0.050905865
99	0xbdb5a3c9	-0.0886913
100	0x3d5e543d	0.054279555
101	0xbd7503fc	-0.059818253
102	0xbc41d833	-0.011831331
103	0xbc207cc2	-0.00979537
104	0x3d87cd67	0.06630974
105	0x3e0e8954	0.13919574
106	0xbd077226	-0.033067845
107	0x3ddcae25	0.10775403
108	0xbddfed75	-0.10933963
109	0x3d4d48d7	0.050118294
110	0xbb29f9d4	-0.0025936263
111	0xbdfe75d9	-0.124248214
112	0xbe01aa86	-0.12662706
113	0x3cfd2194	0.0308998
114	0xbc1e6afb	-0.009669061
115	0x3d706b3f	0.058696028
116	0x3d94d4b1	0.0726713
117	0x3d5c3afd	0.053767193
118	0x3dbd67f6	0.092483446
119	0x3d8f9f69	0.07012827
120	0x3de48258	0.111576736
121	0xbd8c0e94	-0.06838718
122	0x3d9fb070	0.07797325
123	0xbd78c6ad	-0.060736347
124	0x3d37663c	0.044775233
125	0xbe0a9b85	-0.13535888
126	0xbd25116f	-0.04029983
127	0x3d9b730e	0.07590304
128	0x3cdea066	0.027176093
129	0x3ca4c8a3	0.020115202
130	0x3dd6472f	0.10462796
131	0xbdf49701	-0.11942864
132	0xbe0e1f30	-0.13879085
133	0x3d2f5518	0.04280576
134	0xbccc13eb	-0.024911841
135	0x3d50fafd	0.05102061
136	0xbd7f0e5e	-0.06226956
137	0x3e1f0c2d	0.15531988
138	0xbb865bc3	-0.0041002943
139	0x3d4cb048	0.049972802
140	0x3d54fd4d	0.05199938
141	0xbdf70577	-0.12061589
142	0xbaab09a0	-0.0013049133
143	0x3c212807	0.009836203
144	0xbdf30a08	-0.11867148
145	0x3ddb0433	0.1069416
146	0x3d1eb6d4	0.038748577
147	0x3e1485ca	0.14504161
148	0x3c836cdd	0.016043121
149	0xbc381bbf	-0.011237084
150	0xbcecbb09	-0.028897779
151	0xbd07d758	-0.033164352
152	0x3e32950f	0.17439674
153	0xbceb080b	-0.028690359
154	0xbd61db74	-0.055140927
155	0xbc90d1a8	-0.017678097
156	0xbc5e594b	-0.013571094
157	0xbafb6283	-0.0019179139
158	0x3d775ac8	0.06038931
159	0x3d8c6a39	0.06856198
160	0x3d99fa60	0.07518458
161	0x3d04d963	0.03243388
162	0x3d0ea3ea	0.03482429
163	0x3dd41336	0.10355227
164	0xbcd53a57	-0.026028795
165	0x3d637351	0.055529896
166	0x3e37391c	0.17892879
167	0xbdc438ef	-0.09581172
168	0xbe39c4e8	-0.1814152
169	0xbd9e3e98	-0.077267826
170	0xbdbb3b4d	-0.0914217
171	0x3ccf597e	0.025311228
172	0xbdadda12	-0.08488859
173	0xbdc203ed	-0.09473405
174	0xbc281974	-0.010259975
175	0xbc577645	-0.013150756
176	0x3d5e5988	0.054284602
177	0x3c1d182f	0.009588285
178	0xbc9458cc	-0.018108748
179	0xbc761a57	-0.015020928
180	0xbd0be5f8	-0.034154862
181	0x3d18615a	0.037202217
182	0x3d6961c8	0.056978017
183	0x3e04afb8	0.12957656
184	0xbdb7733e	-0.089575276
185	0xbc12013f	-0.00891143
186	0xbe0ea489	-0.13929953
187	0xbabf58d8	-0.0014598621
188	0xb8d76e1e	-0.0001027251
189	0xbd419635	-0.04726239
190	0xbda3f6a7	-0.080060296
191	0x3b77fcce	0.0037839892
192	0x3ba0573c	0.0048932116
193	0xbd03cc83	-0.03217746
194	0xbd1a50c9	-0.0376747
195	0xbd3e7e1d	-0.04650699
196	0x3d67311a	0.05644331
197	0x3ca9f00b	0.020744344
198	0x3c0bba17	0.008528254
199	0x3d6d5cb2	0.05794973
200	0x3dab0ca3	0.0835202
201	0xbdb49200	-0.0881691
202	0x3d9bd97e	0.07609843
203	0xbdc8eba2	-0.098105684
204	0x3da87a8b	0.08226498
205	0x3e1c6850	0.15274167
206	0x3d7be5ad	0.061498333
207	0xbcd27bdc	-0.025693826
208	0xbd6bcbe6	-0.0575675
209	0xba44b48c	-0.000750371
210	0x3c1d9b2e	0.009619517
211	0x3d3099b6	0.04311534
212	0xbcd5263d	-0.02601921
213	0x3d83f29b	0.06442758
214	0x3d9732d9	0.07382745
215	0xbd41597b	-0.047204476
216	0xbdc26b30	-0.09493101
217	0x3d1316f5	0.035910565
218	0xbd8e9084	-0.06961158
219	0x3d9f6196	0.07782285
220	0x3c282ba0	0.010264307
221	0x3d86704c	0.06564388
222	0xbd5e81c0	-0.054322958
223	0xbd80f1e1	-0.06296135
224	0xbd2f219f	-0.042756673
225	0x3d14b7b4	0.036308005
226	0xbc1b45c8	-0.009477086
227	0xbdab05e1	-0.08350731
228	0x39200900	0.00015262142
229	0x3bf8827d	0.007583915
230	0xbdb2d309	-0.08731658
231	0xbb80fed4	-0.003936628
232	0xbd804b5a	-0.06264372
233	0xbda3ebfd	-0.080039956
234	0xbd0c3819	-0.034233186
235	0x3e0723e4	0.13197285
236	0x3b3595d0	0.0027707703
237	0x3ce522f8	0.027970776
238	0xbe08266a	-0.13295904
239	0xbc1a7a43	-0.0094285635
240	0x3b1324f6	0.002245245
241	0x3d8cef1b	0.06881543
242	0x3de90640	0.11378145
243	0x3ddf3fd3	0.109008454
244	0xbdc49108	-0.09597975
245	0xbae71594	-0.0017630332
246	0xbd9e4afd	-0.07729147
247	0xbd842521	-0.06452394
248	0xbc1ac709	-0.009446868
249	0xbd7ba664	-0.06143798
250	0xbc89b3db	-0.016809395
251	0x3d64891e	0.055794828
252	0xbda68918	-0.08131617
253	0x3dae1c53	0.08501496
254	0xbd4f669c	-0.050634965
255	0x3e62cf1e	0.22149321

Func/StatefulPartitionedCall/sequential/lstm/PartitionedCall/input/_11:0 f4 [47, 200]
0	0x3daf2eba	0.08553834
1	0x3c08e682	0.008355739
2	0x3da253bd	0.07926128
3	0x3de69dad	0.11260543
4	0xbdbf044a	-0.0932699
5	0xbde46ddd	-0.11153767
6	0x3c94f91f	0.018185196
7	0x3e1840d4	0.1486848
8	0xbdf53537	-0.119730406
9	0x3e1685a1	0.14699413
10	0x3d869d5b	0.06572982
11	0xbdaf221b	-0.08551427
12	0x3d9ace3d	0.07558868
13	0x3ddc508c	0.107575506
14	0xbe2a9170	-0.16657043
15	0x3d701d15	0.058621485
16	0xbd2da87b	-0.042397004
17	0x3c888b1b	0.016667893
18	0x3d2295ae	0.039693527
19	0xbde7b4f0	-0.11313808
20	0x3df0000b	0.11718758
21	0x3e161c72	0.14659289
22	0x3d912e62	0.07088925
23	0x3e029a00	0.12754059
24	0xbd35b740	-0.044364214
25	0x3d7ceeaf	0.061751064
26	0x3e177cd9	0.1479372
27	0x3d84d848	0.06486565
28	0x3bc128f8	0.0058947764
29	0xbd2d3325	-0.042285103
30	0xbe158dc5	-0.14604862
31	0x3da28d3f	0.07937097
32	0x3cdb8ab1	0.026799532
33	0x3da3666a	0.07978518
34	0x3e0c0cec	0.13676804
35	0xbd0d07e4	-0.034431353
36	0x3d05695a	0.032571174
37	0xbc62476a	-0.013810972
38	0x3dc3bac3	0.09557106
39	0xbca8f328	-0.020623758
40	0x3dc701d6	0.09717147
41	0xbde1ae7d	-0.11019609
42	0xbae397ee	-0.0017364004
43	0x3dd8c097	0.105836086
44	0xbcddde2b	-0.027083477
45	0xbe27b4b9	-0.16377534
46	0xbc510bd2	-0.012759166
47	0x3d87b3b2	0.06626071
48	0x3cefdbbd	0.029279584
49	0x3d749c97	0.05971965
50	0xbd8ca636	-0.0686764
51	0x3e0e16e6	0.13875923
52	0xbd9df451	-0.07712615
53	0x3d32f5c8	0.043691427
54	0xbe0b405f	-0.13598774
55	0x3df8a8f0	0.12141597
56	0xbde6cf5a	-0.11270018
57	0xbe1bb800	-0.15206909
58	0x3dc17858	0.09446782
59	0xbe12ba59	-0.14328898
60	0xbe0a3337	-0.134961
61	0xbd8839ac	-0.06651625
62	0x3daef158	0.085421264
63	0xbe028b39	-0.12748422
64	0xbb6274c0	-0.0034554452
65	0x3d99a2aa	0.07501729
66	0xbdfa91c2	-0.12234832
67	0xbd2a7a1c	-0.04162036
68	0x3def3ecc	0.116818994
69	0x3e0b211c	0.13586849
70	0xbd0a602e	-0.03378313
71	0xbca6dab8	-0.020367965
72	0xbddc04e6	-0.10743122
73	0xbc663880	-0.014051557
74	0x3dae8c2c	0.085228294
75	0xbdba58ff	-0.09099006
76	0xbe173b23	-0.14768653
77	0x3db60e02	0.088893905
78	0x3df1f5b4	0.11814442
79	0xbdc65db2	-0.0968584
80	0xbcd600d8	-0.02612345
81	0x3d5a3478	0.053272694
82	0x3d52e494	0.05148752
83	0x3cf03878	0.029323801
84	0xbe047827	-0.1293646
85	0xbd4f0324	-0.050540105
86	0x3cb979f0	0.022641152
87	0x3dc9f1ec	0.09860596
88	0x3de94da0	0.11391759
89	0x3e0cd3ca	0.13752666
90	0xbd45e556	-0.048314415
91	0x3c959128	0.018257692
92	0xbe0a74b7	-0.13521086
93	0xbe0b5112	-0.13605145
94	0xbe0d8f0d	-0.13824101
95	0x3c9f75b0	0.019465297
96	0x3b70c980	0.0036741197
97	0x3e0d44fc	0.13795847
98	0xbe10eece	-0.14153597
99	0x3e0c0fa8	0.13677847
100	0x3b854912	0.0040675486
101	0x3bec4720	0.007210627
102	0xbe17b71e	-0.14815947
103	0x3d292c55	0.041302044
104	0x3dfced5a	0.12349959
105	0x3b826d9b	0.003980351
106	0x3cbc26b1	0.022967668
107	0x3d3b1243	0.045671713
108	0xbd7dadc4	-0.061933294
109	0xbe0f5491	-0.13997103
110	0x3dabe11b	0.08392545
111	0xbe158e18	-0.14604986
112	0x3e0d3516	0.13789782
113	0xbd95ff7b	-0.0732412
114	0xbc29aeb4	-0.010356594
115	0x3df0a5e5	0.11750392
116	0x3ddafa82	0.10692312
117	0xbd7d2368	-0.061801344
118	0x3e0e9d3c	0.13927168
119	0xbda16174	-0.07879916
120	0xbe07e554	-0.13271075
121	0xbcb6642e	-0.022264566
122	0x3dfa25f9	0.12214274
123	0x3e10f113	0.14154463
124	0x3ddc182f	0.107468
125	0xbd937c58	-0.07201451
126	0xbe0a3bee	-0.13499424
127	0xbd4231bb	-0.047410708
128	0xbd030263	-0.031984698
129	0x3da94108	0.08264357
130	0xbd2220db	-0.039582115
131	0xbd272bca	-0.040813245
132	0x3c173c08	0.009230621
133	0xbc0a8fd9	-0.0084571475
134	0x3d9a5276	0.075352594
135	0xbdddd3c8	-0.1083141
136	0xbde7460b	-0.112926565
137	0x3d264d53	0.040601086
138	0xbc81264d	-0.015765334
139	0x3dff1d41	0.124567516
140	0x3d8fb4fe	0.070169434
141	0x3d6f578d	0.058433104
142	0xbdc65ac5	-0.09685282
143	0xbdab240f	-0.08356487
144	0x3e05ea96	0.13077769
145	0xbe0de7fa	-0.13858023
146	0xbd7026f2	-0.05863089
147	0x3da883d4	0.08228269
148	0xbc8b10e4	-0.016975828
149	0xbda0eda9	-0.0785783
150	0x3d30c04a	0.04315213
151	0xbdca4c28	-0.09877807
152	0xbd8e5bed	-0.06951127
153	0x3c305a04	0.010763649
154	0x3d4dedf6	0.050275765
155	0xbdbdaab7	-0.09261077
156	0xbe097b87	-0.13426028
157	0x3e32f639	0.17476739
158	0x3e0efa59	0.13962688
159	0xbdfee50a	-0.124460295
160	0xbd9bdbf5	-0.07610313
161	0xbd7062fa	-0.05868814
162	0xbe08d8ce	-0.13363954
163	0xbc1cf654	-0.009580214
164	0xbe6d5d4c	-0.23180121
165	0xbdd6b310	-0.10483372
166	0xbc02eebd	-0.00799149
167	0x3d87c2b0	0.066289306
168	0x3ab74816	0.0013983275
169	0x3d2382dc	0.03991972
170	0xbd790647	-0.060797002
171	0x3df8f2d9	0.121556945
172	0xbd960f68	-0.07327157
173	0x3d0b035f	0.03393876
174	0x3e10a96f	0.14127134
175	0x3e195f5e	0.14977786
176	0xbd436e35	-0.047712523
177	0xbc38926b	-0.0112653775
178	0x3be9f663	0.0071399673
179	0xbd97209f	-0.07379269
180	0xbcdefb2e	-0.027219381
181	0xbd514377	-0.05108973
182	0xbda4b9c8	-0.080432475
183	0x3ded38c4	0.11583093
184	0x3bd0e133	0.006374502
185	0x3c1b2b31	0.009470747
186	0xbd19d980	-0.03756094
187	0xbd537646	-0.051626466
188	0x3bedb670	0.0072544143
189	0x3e0e448c	0.13893336
190	0xbb90bd32	-0.004417085
191	0xbe1bc578	-0.15212047
192	0x3dd1976c	0.102339596
193	0xbe2799ed	-0.16367312
194	0x3e0346d2	0.12819985
195	0xbb39ff8c	-0.0028381078
196	0xbdfa8f63	-0.1223438
197	0xbdbd25f2	-0.09235753
198	0x3dd4afb5	0.10385076
199	0xbd6a5cbd	-0.05721735
200	0x3de35a00	0.111011505
201	0xbe10d699	-0.14144363
202	0x3daf46a2	0.08558394
203	0xbde7b923	-0.11314609
204	0xbc0118c0	-0.007879436
205	0xbd6d48ea	-0.057930864
206	0xbd531eb6	-0.05154296
207	0x3d8e4a70	0.069477916
208	0xbdbec5ab	-0.09315046
209	0xbe000ea7	-0.1250559
210	0xbdb669fb	-0.08906933
211	0x3c1e2730	0.009652898
212	0xbdb81fbf	-0.0899043
213	0x3bc174a0	0.0059037954
214	0x3cc94e10	0.024573356
215	0x3e0fa592	0.14028004
216	0xbd89abe5	-0.067222394
217	0xbcad79e8	-0.021176293
218	0x3d9a67ba	0.075393155
219	0xbc7d02e0	-0.01544258
220	0xbe102a06	-0.1407853
221	0xbdbb538e	-0.09146796
222	0xb8e67000	-0.00010988116
223	0x3e13cdbe	0.14433953
224	0x3d9ef9e8	0.077625096
225	0xbda2edac	-0.079554886
226	0x3e05bdfe	0.13060758
227	0xbd661e16	-0.056181036
228	0xbe1bdfb7	-0.15222059
229	0xbd1051e4	-0.035234347
230	0x3db916fa	0.090375856
231	0x3d61eb24	0.05515589
232	0x3dc9f868	0.09861833
233	0xbda2fb04	-0.07958034
234	0x3d147120	0.036240697
235	0xbd8d173f	-0.068891995
236	0xbdbc5bc1	-0.09197188
237	0x3e079d72	0.13243654
238	0xbe02e71c	-0.12783474
239	0xbd0a490a	-0.03376106
240	0x3dee84a0	0.1164639
241	0x3d96fe7a	0.07372756
242	0xbe029741	-0.12753011
243	0xbe164db5	-0.1467808
244	0xbe000f9c	-0.12505955
245	0x3dc12220	0.09430337
246	0x3db63b84	0.088980705
247	0x3dc692e4	0.09695986
248	0xbc2066d0	-0.009790137
249	0x3c0469e0	0.008081883
250	0x3d9d292e	0.0767387
251	0xbc4be1f0	-0.012444004
252	0x3dfed788	0.12443453
253	0x3e109720	0.1412015
254	0x3df7c274	0.12097636
255	0x3da4803c	0.08032271
