db/data/models/sample.onnx (onnx, 80205 bytes, 4 tensors)

prediction/kernel:0 f4 [50, 1]
00000000: 4d0f be3b 7ccf 76be 15c5 603e fd73 853e
00000010: 3145 e63d fde0 08bc e761 913e 9081 6cbe
00000020: a492 0e3d c8c7 7bbe 3aeb b73d d75c 60be
00000030: 5dea 553e 787f 28be 0144 b4bc c96e a43e
00000040: 8e39 273e a667 a63e 37ee 81be 73db 7abe
00000050: c02a 5c3e 538f c53c 8436 a0be 121c 66be
00000060: a801 773e f402 06be 4ba0 1fbe bab5 8a3d
00000070: a96c ad3d 6298 9d3e ed8e 903e 48fb 07be
00000080: d77e 4fbe 7a4d 8fbe 70b1 43be d836 a43e
00000090: 6a1d 963d a2a4 07bd ea01 04be 6910 8abe
000000a0: bb1e 7c3e 9e41 d2bd f442 823e 6bc0 8c3d
000000b0: 6358 183e eecb aabe 521d 9a3e 4a2c 35be
000000c0: b504 92be 4616 33bd
0.005800164 -0.24102587 0.21950181 0.26065055 0.11243666 -0.008354423 0.28395006 -0.23096299
0.034807816 -0.24587929 0.08980413 -0.21910416 0.20890184 -0.16454875 -0.022005083 0.32115772
0.16330549 0.32500952 -0.25377056 -0.24497776 0.21500683 0.024116194 -0.31291592 -0.22471645
0.24121726 -0.13087064 -0.1558849 0.06772943 0.08467991 0.3078032 0.28234044 -0.1327945
-0.2026323 -0.27988797 -0.19110656 0.32073092 0.07329829 -0.03311599 -0.12891355 -0.26965645
0.24621098 -0.10266422 0.25441706 0.06872638 0.14877467 -0.3335871 0.30100495 -0.17692676
-0.28519216 -0.043722413

lstm_1_W f4 [1, 200, 47]
00000000: 2cd1 7d3d 0643 11be 9f97 d7bd e21c 9dbd
00000010: e832 fd3d e4b8 163e 22a6 b4bd bab5 bfbd
00000020: f84f f83c b819 af3c 1171 d9bd f0ff debd
00000030: e857 eb3d a080 443d fb2c 07be 6845 9dbd
00000040: cfc5 b0bd f67a 8cbd eac5 26bd 7bce 0abe
00000050: 1ceb 56bd 140e 863d d04d e53d ea65 9a3d
00000060: ed86 e5bd 38f9 6fbd a25e ffbd a250 b63d
00000070: 04a4 36bd b7bd 93bd d017 c53d bfcc c7bc
00000080: 10ba 03bd 9c46 643d 04fe abbd 60eb 103d
00000090: 9eab 50bd f0ec 5d3d 037c 7a3b 5fb0 13bd
000000a0: 4b51 aebd 6aff 023e 183a f03d 3892 0f3e
000000b0: 39cb 0b3e 7e1f 2fbd 34f2 92bd 4f67 8fbd
000000c0: 5051 fabd 0602 a03d 70fc b4bd 5668 af3d
000000d0: 00b2 f8bc aa9f e0bd 2ca8 703d 706a 93bc
000000e0: e2f2 08be aca1 b83d 323a 0d3e 8843 283d
000000f0: 74e9 253d 01d5 70bd a0af c53d 20da ddbd
00000100: 5c04 9c3d 4088 6a3d b0e8 a3bc cca3 12be
00000110: 845a 203d c01d 673c 0621 2cbd 366f d13d
00000120: d887 c3bc 5c45 4c3d c8f4 303d fa0b 013e
00000130: c421 96bd 8e45 803d df9d 903d 481d 073e
00000140: be00 ddbd b672 79bd f083 04be 240b 683d
00000150: 26e1 0bbe 9ab1 0fbd 5442 c93d 028e 7dbd
00000160: 4096 463b bc26 1b3e 0c06 e13d 88c7 5b3d
00000170: 5455 863d 898b c7bd 200c 95bd 4418 c93d
00000180: c4e9 d63d 003c c539 f2b7 e3bd 6301 1fbe
00000190: 36d0 a73d b451 0f3d b8e1 863d d89b 063e
000001a0: 00f7 9a3d bcd4 4fbd 5e56 e1bd e03b 52bc
000001b0: d5b2 b33d 4835 24bd b6ef 04bd b437 223d
000001c0: 0a00 a0bd 482e fabc 2b13 01be 9457 d53d
000001d0: f4fc b7bd 2002 d23c 276d 853c 1892 c93d
000001e0: 02b4 19bd 2b0f e4bd 0eb2 a63d c601 03be
000001f0: de02 16be 8aaa 04be 22ce 87bd e2f0 5dbd
00000200: 98d3 d23c 60bb 2e3c c9ab 8bbd 76f5 ab3d
00000210: 59ff dc3d 8dab debc b4c9 c2bd e003 d63d
00000220: 9213 953d 8051 233c 69a5 e0bd daea c4bd
00000230: bafc d23d 7cc1 113e 7484 f43d fa6f 45bd
00000240: a9e3 87bd fe9e 1bbd 0068 ed3c 8e47 75bd
00000250: 9021 f5bd 0096 2dba ccdd 003e ac08 07bd
00000260: 7017 b73c 3e11 e2bd 6860 fe3d 9bec 093e
00000270: e4d9 f3bd 7c2a ee3d 4017 78bb 9039 063e
00000280: d26e 4abd 5472 c73d 5026 2f3d 871a bcbd
00000290: 24fc d9bd e327 493d 00a2 1c3c 4408 9e3d
000002a0: 0a15 1a3e 08c2 03be 9c24 3f3d 5e69 0ebe
000002b0: faf0 0ebe 0851 ea3c d308 bfbd ccc6 6e3d
000002c0: f22f 81bd da1e 99bd 90fe 153c 74c2 e23d
000002d0: 2ac5 e63d 3b70 8bbd 309d 183c 544a e33d
000002e0: 6755 c5bd 4b3e 203d 42a7 113e d2d9 083e
000002f0: 8cf6 e23d eb9b 8dbd aa83 42bd b0f3 f8bc
00000300: eaf0 f0bd cedd ad3d 4439 683d 7cc6 b53d
00000310: 1ab1 30bd 80a3 65bc 1937 283d 0bd5 f7bd
00000320: a6ed 0fbe 8c19 033e 7b47 0bbd 3a8d b13d
00000330: f075 ca3d c05c 63bd a0ba a0bb 4db9 18be
00000340: 81e3 94bd cac6 21bd 7ce0 e03d 22ec 05be
00000350: 71e8 90bd 4b1b 01be 5605 a43d c072 78bb
00000360: dc0b d13d 80e9 7d3d bdfd 84bd 8a97 863d
00000370: 007a a639 0c7c 6abd 1464 e23d ecc2 ad3d
00000380: 68f9 993c 18ed bdbc 6218 043c f7ad 28bd
00000390: 00d8 d73a 90a2 c7bd 8c32 09be 51ed 96bd
000003a0: 76ff 78bd 6ca5 513d 6234 cebc 1619 e8bd
000003b0: 32bd 7cbd 44a4 443d e859 babc 9ae1 153e
000003c0: 34a9 623d 8cd4 de3d 2a91 74bd e88b b03d
000003d0: b9b6 a4bd 30bb aebd 6854 b4bd 6406 fa3d
000003e0: 14d6 a33d 51f6 553d 9c24 f8bd 1a33 a83d
000003f0: cec5 173e 5ec2 edbd 34e1 c6bd 7065 97bc
0.06196706 -0.14185724 -0.10526966 -0.076715246 0.12363225 0.14718968 -0.0882075 -0.093608335
0.03031157 0.021374568 -0.10617269 -0.1088866 0.11491376 0.04797423 -0.13200752 -0.07679254
-0.08631479 -0.068593904 -0.04071609 -0.13555329 -0.05247031 0.06545654 0.11196482 0.0753897
-0.11207376 -0.058587283 -0.12469222 0.08902098 -0.04459001 -0.072139196 0.096236825 -0.024389623
-0.032159865 0.0557314 -0.08398059 0.03538072 -0.050944917 0.05418104 0.003822089 -0.036056872
-0.08511599 0.12792745 0.117298305 0.14020622 0.13651742 -0.042754643 -0.07175103 -0.070021264
-0.122225404 0.07812886 -0.08837211 0.085648224 -0.030358315 -0.109679535 0.05875413 -0.01799509
-0.13373902 0.090152115 0.13791731 0.041080028 0.04050584 -0.058796886 0.096526384 -0.1083262
0.07618019 0.057258844 -0.020008415 -0.14320296 0.039148822 0.014106214 -0.04202368 0.1022629
-0.023868486 0.049870834 0.04320219 0.12602225 -0.07330659 0.062632665 0.070613615 0.13194764
-0.10791157 -0.060900412 -0.12940955 0.05665125 -0.13660106 -0.035081483 0.09827104 -0.061903007
0.0030301958 0.15151495 0.109874815 0.053657085 0.06559244 -0.09743411 -0.07277703 0.098190814
0.10493806 0.00037619472 -0.11119069 -0.15527873 0.0819401 0.034990028 0.06586021 0.13145387
0.07566643 -0.05073999 -0.11002801 -0.012831658 0.08774344 -0.040089875 -0.03245517 0.039603904
-0.078125075 -0.030539647 -0.12604968 0.10417095 -0.08983794 0.025635779 0.0162874 0.09842318
-0.037525184 -0.111357056 0.0813943 -0.12793645 -0.14649531 -0.1295568 -0.066311136 -0.054184802
0.025735661 0.010664791 -0.06819875 0.08396427 0.10790891 -0.027181411 -0.09511128 0.10449958
0.07279123 0.009968162 -0.109690495 -0.09615107 0.1030211 0.14233965 0.11939326 -0.048202492
-0.066352196 -0.037993424 0.028980255 -0.059882693 -0.11969292 -0.0006621778 0.12584609 -0.032967255
0.022350043 -0.11038445 0.12420732 0.13469164 -0.11906794 0.11629197 -0.0037855655 0.13107896
-0.049422093 0.09738603 0.042761147 -0.09184747 -0.10643795 0.049110305 0.009560108 0.0771642
0.15047088 -0.12866986 0.046665773 -0.13907382 -0.13959113 0.028603092 -0.09327855 0.058295056
-0.06307973 -0.074765876 0.009154931 0.11072245 0.11268075 -0.06808516 0.00931482 0.11098161
-0.0963543 0.039121907 0.1422396 0.13364342 0.11082181 -0.069145046 -0.047488846 -0.030389637
-0.11764701 0.084895715 0.056695238 0.088757485 -0.043137647 -0.014016032 0.04106817 -0.121011816
-0.140555 0.12802714 -0.034003716 0.08669515 0.09885776 -0.055508375 -0.00490506 -0.14914437
-0.072699554 -0.03949622 0.10980317 -0.13078359 -0.07075585 -0.12608068 0.0800883 -0.0037910193
0.1020734 0.06199026 -0.06493709 0.065718725 0.00031752884 -0.057247207 0.11054245 0.08484444
0.018795684 -0.023184344 0.008062454 -0.04118153 0.0016467571 -0.09747803 -0.13398188 -0.07369483
-0.0607905 0.05118315 -0.025171462 -0.1133291 -0.06170387 0.04800822 -0.022747949 0.14636841
0.055337146 0.10880384 -0.05970875 0.08620435 -0.08042664 -0.08531797 -0.08805162 0.1220825
0.079998165 0.05223686 -0.12116358 0.08212872 0.1482155 -0.11609338 -0.09710923 -0.018480986

lstm_1_R f4 [1, 200, 50]
00000000: 6432 733d aa9c b8bc 91b2 dc3b 2d52 3dbd
00000010: 9e09 6a3d c11b 913d 3309 03bd afc7 cb3c
00000020: abd6 153d b236 943b de0e 783d e264 793c
00000030: e725 01be 0267 573c 9ed5 c6bd 9f55 523b
00000040: 973e c9bd 3e2e 2d3b 32df f93d 722b 70bd
00000050: 80c7 4d3d e212 123e 31e4 f0bc 0973 f73c
00000060: a54e 373c 9188 7b3d 9790 c4bd 4271 9b3c
00000070: 3583 693c a25d 9ebc 15b0 05be ff4f 023e
00000080: 1305 97bc efcb 213d d2af dbbd c40d 97bd
00000090: df51 f4bc 1327 153e e50f cbbc 6d9f 953c
000000a0: fe12 9b3c ff71 3a3d f237 92bd 36f3 7cbd
000000b0: 3677 153c 58e3 a83c 40ca d0bb c1e9 07be
000000c0: b4f6 403d 12c4 8fbd d6d3 183d bfaa 343d
000000d0: 7a16 153e feae d53c fc87 9d3c c70c 42bc
000000e0: 4dad 0dbe 4622 e0bd 83b9 283c b6cd d6bd
000000f0: cc42 1a3d d4e6 b13c 27fe c23b 16bf 29bd
00000100: 9e7d f43b 16dd b9bc 00eb 3c3d a4ff 143c
00000110: 4897 9abd b019 88bd 6971 ae3d ee04 00be
00000120: 9b6d f5bc e930 36bd 835d 1d3d 7ad9 6bbc
00000130: 1cdc aabd 851f 35bc 6e79 34bd 5161 af3d
00000140: e055 e83c c7d4 9dbd 2291 d03d 2665 a7bd
00000150: 639d 903c d45e e3bd ee14 a6bd bddf b23d
00000160: 95c3 cdbd d95a fe3c 8e51 a4bd 9e64 743d
00000170: 7666 4fbb e4d9 c1bd 61ad febb 9db7 0d3d
00000180: be72 c03c bf48 e63c 3881 233c 7329 0dbe
00000190: 1492 1a3b f506 a7bd c7d0 983d 73d2 133e
000001a0: 1882 6b3d 2caf e33d 7887 17be 3bd8 223d
000001b0: d1e7 2a3c e1ff 4c3d 8d3c 633d 728a bebc
000001c0: 981c ecbd bab0 ec3c c799 093e 6bcb 40bd
000001d0: 9c16 673d 4077 3f3d 96b0 5b3d 5c65 323c
000001e0: 4fc1 05bb 527a 313d 4831 0e3e 144f 793c
000001f0: 815b fc3c f5a3 0e3d c63e 703d 3510 bd3c
00000200: 060a 04bd 1c27 fcba c036 f5bb 2ee5 ba3c
00000210: 6afb 83bd 2a5d d5bc cc2d 4cbb e75c 123d
00000220: 87e0 fabc 758b 9c3d 7d84 20bd d922 d1bc
00000230: 1462 86bd b8fe 21be 737c 4e3d be5a d83d
00000240: 0d81 83bb be3e 6cbd 2afa 7ebd 21b2 0abe
00000250: daa4 21bc 72d0 803d 5360 ee3d ff2f 15bd
00000260: 0654 b5bd f39d ed3a 5a20 78bd 5e43 8e3d
00000270: 945f a3bd 5f76 3abd 8e5b 193d 2a39 153c
00000280: 884b 47bd b3cc 6d3d a19d d13d f656 d4bd
00000290: 84e8 31bd 3955 a83d a29d 2cbc 442d 913d
000002a0: 8e69 bcbc 5ed7 c8bd 2d9e e8ba 7708 933d
000002b0: 9fb9 51bd 43a5 d1bd e503 883d c189 87bd
000002c0: bd6a cbbc 5d5d f13d 8103 7c3d 1a4b c33b
000002d0: 6765 103d ea33 9b3d e736 15bd 862c 673c
000002e0: 9a90 4ebd 6030 a93d 6a6b da3d 2d42 d13c
000002f0: ea0d b03d 99a1 de3d 12d6 033d e46a 083e
00000300: 5ca2 0f3d 3245 b7bd 993c 363e b909 4d3d
00000310: e746 afbd 40ff 083e f82e 1fbd ab8f a43c
00000320: d1e8 a3bc d28b 803c 1a85 c2bd 1d32 41bd
00000330: 4368 74bd af51 043e 27e4 c4bd 5538 25bc
00000340: faa3 b43d 0e9b 68bd dbda 4ebd 5502 91bd
00000350: c098 ffbc 6437 28bd 21bf 8dbb 9cbe 023d
00000360: ad7e 95bd 5267 d2bc b6eb 043e 5c51 74bb
00000370: a061 e3b9 a329 4ebd eb53 963d ca09 13bd
00000380: b258 b93d a8a5 593d a762 f33c 5b78 2bbe
00000390: 4210 20be 8d2e 763c 3292 373b dcf5 e6bc
000003a0: ee34 bbbd f8ef 283d bfb3 c3bc ccb0 163d
000003b0: 83b8 1bbc eaaa d83d 8df8 193d 4ee1 ee3d
000003c0: bebd bd3d 1b4f 14bd 5319 6abd 01c9 7cbd
000003d0: e8cb f4bd dc87 bb39 2c01 3d3e f8b7 2b3d
000003e0: 22b2 26be 9f79 25bd 46d2 21be f0fc 09bd
000003f0: 9c23 15be 6cd2 11be 85e0 093d c7b9 6d3d
0.059374228 -0.02253564 0.006735154 -0.046220947 0.057138078 0.07085372 -0.031991195 0.02487549
0.036581676 0.0045231218 0.060561053 0.015221806 -0.12612115 0.013147118 -0.09708713 0.0032094491
-0.09826391 0.0026425268 0.12200774 -0.058635183 0.050239086 0.14265016 -0.029405685 0.03020622
0.011188184 0.061409537 -0.09597891 0.018974904 0.014252474 -0.019331757 -0.13055451 0.12725829
-0.018435037 0.039501127 -0.107268944 -0.073756725 -0.029824195 0.14565687 -0.024787853 0.018264497
0.018929955 0.04551887 -0.07139577 -0.06175538 0.00912266 0.020616218 -0.0063717663 -0.13272764
0.047110274 -0.07019819 0.037311397 0.04410815 0.14559355 0.02608442 0.019229881 -0.011843867
-0.1383564 -0.10944037 0.010298136 -0.10488455 0.03766136 0.021716513 0.0059507075 -0.041442
0.007461264 -0.02268843 0.04612255 0.009094153 -0.07548386 -0.066455245 0.08517725 -0.1250188
-0.02995949 -0.044480238 0.038419258 -0.014395112 -0.08342764 -0.011054878 -0.044061117 0.085634835
0.02836126 -0.077066 0.10183932 -0.081735894 0.017653173 -0.111020714 -0.08109461 0.08734081
-0.1004707 0.031049179 -0.08023368 0.05966627 -0.0031646765 -0.094653875 -0.007772133 0.034598935
0.023492213 0.02811086 0.009979539 -0.13785343 0.0023585605 -0.08155624 0.07461696 0.14435749
0.057497114 0.11117396 -0.14797771 0.039756995 0.010431246 0.050048713 0.055477668 -0.023259375
-0.11528891 0.028892864 0.13437568 -0.047068994 0.056418046 0.046744585 0.053635202 0.010888424
-0.002040941 0.043329544 0.13885987 0.015216608 0.030805351 0.03482433 0.058653615 0.023079017
-0.03223612 -0.001923773 -0.0074833333 0.02281436 -0.06444438 -0.0260454 -0.0031155227 0.03573313
-0.030624641 0.07643787 -0.03918885 -0.025529312 -0.06561676 -0.15819824 0.050411653 0.10564183
-0.004013187 -0.057677023 -0.062250294 -0.13544513 -0.009865964 0.06289758 0.11639466 -0.036422726
-0.08853917 0.0018128738 -0.060577728 0.06946443 -0.079772145 -0.045523044 0.03744083 0.009107867
-0.048656017 0.058056545 0.102351435 -0.10368149 -0.043434635 0.0821938 -0.0105356295 0.07088712
-0.022999551 -0.09806703 -0.0017747335 0.07179349 -0.051202413 -0.10236599 0.06641368 -0.06618071
-0.02483117 0.11785386 0.06152678 0.0059598805 0.035252955 0.07578261 -0.036429312 0.014109736
-0.05043087 0.0826118 0.10665019 0.02554425 0.08596404 0.10870666 0.032186575 0.13322026
0.035066947 -0.08948745 0.17796554 0.0500581 -0.085584454 0.1337862 -0.038863152 0.020088037
-0.020008476 0.015691672 -0.09498043 -0.047166932 -0.059669744 0.12921785 -0.09613829 -0.010084231
0.088203385 -0.056788497 -0.050501686 -0.07080523 -0.031200767 -0.04106845 -0.004325763 0.03192006
-0.07299552 -0.025684033 0.12980542 -0.003727994 -0.0004336955 -0.050332677 0.07340225 -0.035898007
0.090501204 0.053136498 0.029710127 -0.1674513 -0.15631202 0.015025747 0.0028010723 -0.028193407
-0.09140955 0.041244477 -0.02388942 0.0367897 -0.00950444 0.10579474 0.037590552 0.11664067
0.09264706 -0.036208253 -0.057153057 -0.06171513 -0.119529545 0.00035768643 0.18457478 0.041923493
-0.1627889 -0.04039919 -0.15802869 -0.033688486 -0.14564365 -0.14240426 0.033661384 0.0580385

lstm_1_B f4 [1, 400]
00000000: f109 a8bc 0269 d8bc 69fe 4e3b 7e00 edbb
00000010: 679d d8ba f362 b2bc d87d 563b ef50 53bc
00000020: 3917 80bb ff63 013c 6a72 03bc adb5 8dbb
00000030: 7750 1bbd 6bf4 16bd bf05 01bc 5e8e cabb
00000040: b305 933b d023 913b 3fe7 7bbd 88f4 afbc
00000050: e598 c239 77da 03bd 80fb 443b a218 f7bc
00000060: 27e6 bebc 65d9 26bc f1ff d8bc 546b 78bc
00000070: 2f4e 02bc e622 05bd 8e74 0a3b 1054 d9bc
00000080: 1a0a 05bc 4252 6a3c f585 d7bc dab3 cfbb
00000090: e460 83bb e288 fa3b 1779 50bc 0cef e0bc
000000a0: f476 8abc 2cad 06bd 28f4 013c 59b5 38bc
000000b0: ba57 fdbc 7844 0abc 1e78 08bc 548c 29bc
000000c0: 9746 d7bc 322e cfbc be25 a6bc 05c1 d9bc
000000d0: 41de 523b 4420 07bc 769b 26bb 6c0b adbc
000000e0: f33d 643b 3f32 4bbc 888c 7fbb a095 eb3b
000000f0: 960f 0bbc 546f a5bb 30db 1bbd b89f 16bd
00000100: f843 f8bb 9a6c d2bb 658c 303b 570c 843b
00000110: dddd 7cbd f696 b2bc 9554 0439 a469 02bd
00000120: b255 2c3b 5857 f2bc 8aab c6bc c7a7 27bc
00000130: 5bd7 d5bc 582f 87bc 426a 02bc fa6e 02bd
00000140: 839e 0d3b a9fc d5bc 6961 e7bb 860d 713c
00000150: 3dfc d9bc a393 97bb cf93 64bb 7efe da3b
00000160: 3460 43bc 67ed dbbc d04b 86bc 8c04 00bd
00000170: 33f5 1b3c 3cc2 44bc 824a fdbc 173a 19bc
00000180: ab81 0bbc b3e4 1dbc 615a d0bc cbca cdbc
00000190: 0000 803f 0000 803f 0000 803f 0000 803f
000001a0: 0000 803f 0000 803f 0000 803f 0000 803f
000001b0: 0000 803f 0000 803f 0000 803f 0000 803f
000001c0: 0000 803f 0000 803f 0000 803f 0000 803f
000001d0: 0000 803f 0000 803f 0000 803f 0000 803f
000001e0: 0000 803f 0000 803f 0000 803f 0000 803f
000001f0: 0000 803f 0000 803f 0000 803f 0000 803f
00000200: 0000 803f 0000 803f 0000 803f 0000 803f
00000210: 0000 803f 0000 803f 0000 803f 0000 803f
00000220: 0000 803f 0000 803f 0000 803f 0000 803f
00000230: 0000 803f 0000 803f 0000 803f 0000 803f
00000240: 0000 803f 0000 803f 0000 803f 0000 803f
00000250: 0000 803f 0000 803f 3863 88bc 5562 0abc
00000260: 4c0d be3b 770f 033c 7d12 b13b 6133 bfbc
00000270: b3aa bd3b 8adc 0ebc e9e0 723b 428e 11bc
00000280: a3ff 0a3c fc53 edbb b4a2 043c 477b cfbb
00000290: 6137 68ba 7889 0c3c fb84 1c3c b8a1 f73b
000002a0: a5fa e0bb 0f1c 08bc cdd1 b33b d645 273c
000002b0: 1268 d4bb 400a efbb 5b1d 093c ea3a d3bb
000002c0: 2bbd 16bc a483 bb3b 6ea8 153c b3b6 043c
000002d0: 04ee d93b 75ef 0fbc 9db1 e9bb 61af e6bb
000002e0: 4451 0cbc 4341 fa3b 6864 e93b 7391 8bba
000002f0: 96ab 0fbc e4b6 0cbc 1371 043c 53b6 f0bb
00000300: 4d7b 043c 35dd 2c3c 6d1f 033c 9610 cabb
00000310: 1813 d43b 2349 22bc 0cc8 0abc daac bbbb
00000320: 0000 0000 0000 0000 0000 0000 0000 0000
00000330: 0000 0000 0000 0000 0000 0000 0000 0000
00000340: 0000 0000 0000 0000 0000 0000 0000 0000
00000350: 0000 0000 0000 0000 0000 0000 0000 0000
00000360: 0000 0000 0000 0000 0000 0000 0000 0000
00000370: 0000 0000 0000 0000 0000 0000 0000 0000
00000380: 0000 0000 0000 0000 0000 0000 0000 0000
00000390: 0000 0000 0000 0000 0000 0000 0000 0000
000003a0: 0000 0000 0000 0000 0000 0000 0000 0000
000003b0: 0000 0000 0000 0000 0000 0000 0000 0000
000003c0: 0000 0000 0000 0000 0000 0000 0000 0000
000003d0: 0000 0000 0000 0000 0000 0000 0000 0000
000003e0: 0000 0000 0000 0000 0000 0000 0000 0000
000003f0: 0000 0000 0000 0000 0000 0000 0000 0000
-0.020512553 -0.02641726 0.0031584746 -0.0072327247 -0.0016526402 -0.021775698 0.0032728817 -0.012897714
-0.0039090184 0.007897376 -0.008022884 -0.004324636 -0.037918534 -0.03685419 -0.007874905 -0.0061815223
0.0044867634 0.004429318 -0.06149983 -0.021478906 0.0003711648 -0.032190766 0.0030057132 -0.030163113
-0.023303105 -0.010183667 -0.02648923 -0.015162308 -0.007953211 -0.032503985 0.00211266 -0.026529342
-0.008120084 0.014301838 -0.026308993 -0.0063385786 -0.004009353 0.0076457122 -0.012724183 -0.027457736
-0.016902424 -0.032879993 0.007931747 -0.011273705 -0.03092562 -0.008439176 -0.008329419 -0.010348398
-0.026278777 -0.025290582 -0.020281669 -0.026581297 0.003217593 -0.008247439 -0.0025422252 -0.02112361
0.0034826964 -0.012402116 -0.0038993675 0.0071894675 -0.008487603 -0.0050486717 -0.03805083 -0.036773413
-0.007576462 -0.0064216377 0.002693915 0.0040297913 -0.061735023 -0.0218005 0.0001262001 -0.031839028
0.0026296196 -0.029582664 -0.024251718 -0.010232872 -0.026103666 -0.016502067 -0.007959904 -0.031844117
0.0021609373 -0.026121454 -0.0070611727 0.014712697 -0.026609534 -0.004625754 -0.003487814 0.00668317
-0.011924792 -0.0268466 -0.016393572 -0.031254336 0.009518909 -0.0120092 -0.030919317 -0.009352229
-0.008514802 -0.009637046 -0.025433721 -0.025121113 1.0 1.0 1.0 1.0
1.0 1.0 1.0 1.0 1.0 1.0 1.0 1.0
1.0 1.0 1.0 1.0 1.0 1.0 1.0 1.0
1.0 1.0 1.0 1.0 1.0 1.0 1.0 1.0
1.0 1.0 1.0 1.0 1.0 1.0 1.0 1.0
1.0 1.0 1.0 1.0 1.0 1.0 1.0 1.0
1.0 1.0 1.0 1.0 1.0 1.0 -0.016648874 -0.008446296
0.005799925 0.007999293 0.0054038153 -0.023339929 0.005788171 -0.008719573 0.0037060326 -0.008884015
0.0084838 -0.0072426777 0.008095432 -0.0063318345 -0.000885835 0.008577697 0.009553189 0.00755712
-0.0068658167 -0.008307471 0.0054876567 0.010209521 -0.0064821327 -0.007294923 0.008368815 -0.006446232
-0.009200375 0.00572248 0.009134395 0.0081001995 0.006650688 -0.008785118 -0.007131769 -0.0070399498
-0.008564297 0.0076371743 0.007122565 -0.0010648206 -0.008768937 -0.008588526 0.0080836 -0.0073459535
0.008086038 0.010550787 0.008003098 -0.006166528 0.0064720027 -0.009905132 -0.008470546 -0.0057273926
0.0 0.0 0.0 0.0 0.0 0.0 0.0 0.0
0.0 0.0 0.0 0.0 0.0 0.0 0.0 0.0
0.0 0.0 0.0 0.0 0.0 0.0 0.0 0.0
0.0 0.0 0.0 0.0 0.0 0.0 0.0 0.0
0.0 0.0 0.0 0.0 0.0 0.0 0.0 0.0
0.0 0.0 0.0 0.0 0.0 0.0 0.0 0.0
0.0 0.0 0.0 0.0 0.0 0.0 0.0 0.0
